Subnet1(
  (deformNet1): DeformNet(
    (conv_layer1): Conv_layer(
      (conv): Conv1d(1027, 1027, kernel_size=(1,), stride=(1,))
      (bn): BatchNorm1d(1027, eps=1e-05, momentum=0.1, affine=True, track_running_stats=True)
    )
    (conv_layer2): Conv_layer(
      (conv): Conv1d(1027, 513, kernel_size=(1,), stride=(1,))
      (bn): BatchNorm1d(513, eps=1e-05, momentum=0.1, affine=True, track_running_stats=True)
    )
    (conv_layer3): Conv_layer(
      (conv): Conv1d(513, 256, kernel_size=(1,), stride=(1,))
      (bn): BatchNorm1d(256, eps=1e-05, momentum=0.1, affine=True, track_running_stats=True)
    )
    (conv4): Conv1d(256, 3, kernel_size=(1,), stride=(1,))
    (th): Tanh()
  )
  (error_estimator): Error_Estimator(
    (conv_layer1): Conv_layer(
      (conv): Conv1d(1027, 1027, kernel_size=(1,), stride=(1,))
      (bn): BatchNorm1d(1027, eps=1e-05, momentum=0.1, affine=True, track_running_stats=True)
    )
    (conv_layer2): Conv_layer(
      (conv): Conv1d(1027, 513, kernel_size=(1,), stride=(1,))
      (bn): BatchNorm1d(513, eps=1e-05, momentum=0.1, affine=True, track_running_stats=True)
    )
    (conv_layer3): Conv_layer(
      (conv): Conv1d(513, 256, kernel_size=(1,), stride=(1,))
      (bn): BatchNorm1d(256, eps=1e-05, momentum=0.1, affine=True, track_running_stats=True)
    )
    (conv4): Conv1d(256, 1, kernel_size=(1,), stride=(1,))
    (sig): Sigmoid()
  )
)
Subnet1(
  (deformNet1): DeformNet(
    (conv_layer1): Conv_layer(
      (conv): Conv1d(1027, 1027, kernel_size=(1,), stride=(1,))
      (bn): BatchNorm1d(1027, eps=1e-05, momentum=0.1, affine=True, track_running_stats=True)
    )
    (conv_layer2): Conv_layer(
      (conv): Conv1d(1027, 513, kernel_size=(1,), stride=(1,))
      (bn): BatchNorm1d(513, eps=1e-05, momentum=0.1, affine=True, track_running_stats=True)
    )
    (conv_layer3): Conv_layer(
      (conv): Conv1d(513, 256, kernel_size=(1,), stride=(1,))
      (bn): BatchNorm1d(256, eps=1e-05, momentum=0.1, affine=True, track_running_stats=True)
    )
    (conv4): Conv1d(256, 3, kernel_size=(1,), stride=(1,))
    (th): Tanh()
  )
  (error_estimator): Error_Estimator(
    (conv_layer1): Conv_layer(
      (conv): Conv1d(1027, 1027, kernel_size=(1,), stride=(1,))
      (bn): BatchNorm1d(1027, eps=1e-05, momentum=0.1, affine=True, track_running_stats=True)
    )
    (conv_layer2): Conv_layer(
      (conv): Conv1d(1027, 513, kernel_size=(1,), stride=(1,))
      (bn): BatchNorm1d(513, eps=1e-05, momentum=0.1, affine=True, track_running_stats=True)
    )
    (conv_layer3): Conv_layer(
      (conv): Conv1d(513, 256, kernel_size=(1,), stride=(1,))
      (bn): BatchNorm1d(256, eps=1e-05, momentum=0.1, affine=True, track_running_stats=True)
    )
    (conv4): Conv1d(256, 1, kernel_size=(1,), stride=(1,))
    (sig): Sigmoid()
  )
)
Subnet1(
  (deformNet1): DeformNet(
    (conv_layer1): Conv_layer(
      (conv): Conv1d(1027, 1027, kernel_size=(1,), stride=(1,))
      (bn): BatchNorm1d(1027, eps=1e-05, momentum=0.1, affine=True, track_running_stats=True)
    )
    (conv_layer2): Conv_layer(
      (conv): Conv1d(1027, 513, kernel_size=(1,), stride=(1,))
      (bn): BatchNorm1d(513, eps=1e-05, momentum=0.1, affine=True, track_running_stats=True)
    )
    (conv_layer3): Conv_layer(
      (conv): Conv1d(513, 256, kernel_size=(1,), stride=(1,))
      (bn): BatchNorm1d(256, eps=1e-05, momentum=0.1, affine=True, track_running_stats=True)
    )
    (conv4): Conv1d(256, 3, kernel_size=(1,), stride=(1,))
    (th): Tanh()
  )
  (error_estimator): Error_Estimator(
    (conv_layer1): Conv_layer(
      (conv): Conv1d(1027, 1027, kernel_size=(1,), stride=(1,))
      (bn): BatchNorm1d(1027, eps=1e-05, momentum=0.1, affine=True, track_running_stats=True)
    )
    (conv_layer2): Conv_layer(
      (conv): Conv1d(1027, 513, kernel_size=(1,), stride=(1,))
      (bn): BatchNorm1d(513, eps=1e-05, momentum=0.1, affine=True, track_running_stats=True)
    )
    (conv_layer3): Conv_layer(
      (conv): Conv1d(513, 256, kernel_size=(1,), stride=(1,))
      (bn): BatchNorm1d(256, eps=1e-05, momentum=0.1, affine=True, track_running_stats=True)
    )
    (conv4): Conv1d(256, 1, kernel_size=(1,), stride=(1,))
    (sig): Sigmoid()
  )
)
Subnet1(
  (deformNet1): DeformNet(
    (conv_layer1): Conv_layer(
      (conv): Conv1d(1027, 1027, kernel_size=(1,), stride=(1,))
      (bn): BatchNorm1d(1027, eps=1e-05, momentum=0.1, affine=True, track_running_stats=True)
    )
    (conv_layer2): Conv_layer(
      (conv): Conv1d(1027, 513, kernel_size=(1,), stride=(1,))
      (bn): BatchNorm1d(513, eps=1e-05, momentum=0.1, affine=True, track_running_stats=True)
    )
    (conv_layer3): Conv_layer(
      (conv): Conv1d(513, 256, kernel_size=(1,), stride=(1,))
      (bn): BatchNorm1d(256, eps=1e-05, momentum=0.1, affine=True, track_running_stats=True)
    )
    (conv4): Conv1d(256, 3, kernel_size=(1,), stride=(1,))
    (th): Tanh()
  )
  (error_estimator): Error_Estimator(
    (conv_layer1): Conv_layer(
      (conv): Conv1d(1027, 1027, kernel_size=(1,), stride=(1,))
      (bn): BatchNorm1d(1027, eps=1e-05, momentum=0.1, affine=True, track_running_stats=True)
    )
    (conv_layer2): Conv_layer(
      (conv): Conv1d(1027, 513, kernel_size=(1,), stride=(1,))
      (bn): BatchNorm1d(513, eps=1e-05, momentum=0.1, affine=True, track_running_stats=True)
    )
    (conv_layer3): Conv_layer(
      (conv): Conv1d(513, 256, kernel_size=(1,), stride=(1,))
      (bn): BatchNorm1d(256, eps=1e-05, momentum=0.1, affine=True, track_running_stats=True)
    )
    (conv4): Conv1d(256, 1, kernel_size=(1,), stride=(1,))
    (sig): Sigmoid()
  )
)
Subnet1(
  (deformNet1): DeformNet(
    (conv_layer1): Conv_layer(
      (conv): Conv1d(1027, 1027, kernel_size=(1,), stride=(1,))
      (bn): BatchNorm1d(1027, eps=1e-05, momentum=0.1, affine=True, track_running_stats=True)
    )
    (conv_layer2): Conv_layer(
      (conv): Conv1d(1027, 513, kernel_size=(1,), stride=(1,))
      (bn): BatchNorm1d(513, eps=1e-05, momentum=0.1, affine=True, track_running_stats=True)
    )
    (conv_layer3): Conv_layer(
      (conv): Conv1d(513, 256, kernel_size=(1,), stride=(1,))
      (bn): BatchNorm1d(256, eps=1e-05, momentum=0.1, affine=True, track_running_stats=True)
    )
    (conv4): Conv1d(256, 3, kernel_size=(1,), stride=(1,))
    (th): Tanh()
  )
  (error_estimator): Error_Estimator(
    (conv_layer1): Conv_layer(
      (conv): Conv1d(1027, 1027, kernel_size=(1,), stride=(1,))
      (bn): BatchNorm1d(1027, eps=1e-05, momentum=0.1, affine=True, track_running_stats=True)
    )
    (conv_layer2): Conv_layer(
      (conv): Conv1d(1027, 513, kernel_size=(1,), stride=(1,))
      (bn): BatchNorm1d(513, eps=1e-05, momentum=0.1, affine=True, track_running_stats=True)
    )
    (conv_layer3): Conv_layer(
      (conv): Conv1d(513, 256, kernel_size=(1,), stride=(1,))
      (bn): BatchNorm1d(256, eps=1e-05, momentum=0.1, affine=True, track_running_stats=True)
    )
    (conv4): Conv1d(256, 1, kernel_size=(1,), stride=(1,))
    (sig): Sigmoid()
  )
)
Subnet1(
  (deformNet1): DeformNet(
    (conv_layer1): Conv_layer(
      (conv): Conv1d(1027, 1027, kernel_size=(1,), stride=(1,))
      (bn): BatchNorm1d(1027, eps=1e-05, momentum=0.1, affine=True, track_running_stats=True)
    )
    (conv_layer2): Conv_layer(
      (conv): Conv1d(1027, 513, kernel_size=(1,), stride=(1,))
      (bn): BatchNorm1d(513, eps=1e-05, momentum=0.1, affine=True, track_running_stats=True)
    )
    (conv_layer3): Conv_layer(
      (conv): Conv1d(513, 256, kernel_size=(1,), stride=(1,))
      (bn): BatchNorm1d(256, eps=1e-05, momentum=0.1, affine=True, track_running_stats=True)
    )
    (conv4): Conv1d(256, 3, kernel_size=(1,), stride=(1,))
    (th): Tanh()
  )
  (error_estimator): Error_Estimator(
    (conv_layer1): Conv_layer(
      (conv): Conv1d(1027, 1027, kernel_size=(1,), stride=(1,))
      (bn): BatchNorm1d(1027, eps=1e-05, momentum=0.1, affine=True, track_running_stats=True)
    )
    (conv_layer2): Conv_layer(
      (conv): Conv1d(1027, 513, kernel_size=(1,), stride=(1,))
      (bn): BatchNorm1d(513, eps=1e-05, momentum=0.1, affine=True, track_running_stats=True)
    )
    (conv_layer3): Conv_layer(
      (conv): Conv1d(513, 256, kernel_size=(1,), stride=(1,))
      (bn): BatchNorm1d(256, eps=1e-05, momentum=0.1, affine=True, track_running_stats=True)
    )
    (conv4): Conv1d(256, 1, kernel_size=(1,), stride=(1,))
    (sig): Sigmoid()
  )
)
json_stats: {"train_CD_loss": 0.004951859660008375, "val_CD_loss": 0, "train_l2_loss": 0.008833323771079236, "val_l2_loss": 0, "val_CDs_loss": 0, "epoch": 0, "lr": 0.001, "chair": 0}
Subnet1(
  (deformNet1): DeformNet(
    (conv_layer1): Conv_layer(
      (conv): Conv1d(1027, 1027, kernel_size=(1,), stride=(1,))
      (bn): BatchNorm1d(1027, eps=1e-05, momentum=0.1, affine=True, track_running_stats=True)
    )
    (conv_layer2): Conv_layer(
      (conv): Conv1d(1027, 513, kernel_size=(1,), stride=(1,))
      (bn): BatchNorm1d(513, eps=1e-05, momentum=0.1, affine=True, track_running_stats=True)
    )
    (conv_layer3): Conv_layer(
      (conv): Conv1d(513, 256, kernel_size=(1,), stride=(1,))
      (bn): BatchNorm1d(256, eps=1e-05, momentum=0.1, affine=True, track_running_stats=True)
    )
    (conv4): Conv1d(256, 3, kernel_size=(1,), stride=(1,))
    (th): Tanh()
  )
  (error_estimator): Error_Estimator(
    (conv_layer1): Conv_layer(
      (conv): Conv1d(1027, 1027, kernel_size=(1,), stride=(1,))
      (bn): BatchNorm1d(1027, eps=1e-05, momentum=0.1, affine=True, track_running_stats=True)
    )
    (conv_layer2): Conv_layer(
      (conv): Conv1d(1027, 513, kernel_size=(1,), stride=(1,))
      (bn): BatchNorm1d(513, eps=1e-05, momentum=0.1, affine=True, track_running_stats=True)
    )
    (conv_layer3): Conv_layer(
      (conv): Conv1d(513, 256, kernel_size=(1,), stride=(1,))
      (bn): BatchNorm1d(256, eps=1e-05, momentum=0.1, affine=True, track_running_stats=True)
    )
    (conv4): Conv1d(256, 1, kernel_size=(1,), stride=(1,))
    (sig): Sigmoid()
  )
)
json_stats: {"train_CD_loss": 0.005008692818912952, "val_CD_loss": 0.008315421391798312, "train_l2_loss": 0.008826037333346904, "val_l2_loss": 0.005084624470666398, "val_CDs_loss": 0.015222338439766751, "epoch": 0, "lr": 0.001, "chair": 0.015222338439766751}
json_stats: {"train_CD_loss": 0.004108323969001717, "val_CD_loss": 0.16180369223273078, "train_l2_loss": 0.0027360463336877088, "val_l2_loss": 0.026448207929037338, "val_CDs_loss": 0.16129112139690754, "epoch": 1, "lr": 0.001, "chair": 0.16129112139690754}
…
json_stats: {"train_CD_loss": 0.003943608564269893, "val_CD_loss": 0.007343358381889587, "train_l2_loss": 0.0009858569527483162, "val_l2_loss": 0.002136287509550362, "val_CDs_loss": 0.011419979747124883, "epoch": 46, "lr": 0.001, "chair": 0.011419979747124883}
json_stats: {"train_CD_loss": 0.0039591756690403115, "val_CD_loss": 0.006234223391254281, "train_l2_loss": 0.0009724559443865848, "val_l2_loss": 0.001798844417058971, "val_CDs_loss": 0.010653143835275672, "epoch": 47, "lr": 0.001, "chair": 0.010653143835275672}
Subnet1(
  (deformNet1): DeformNet(
    (conv_layer1): Conv_layer(
      (conv): Conv1d(1027, 1027, kernel_size=(1,), stride=(1,))
      (bn): BatchNorm1d(1027, eps=1e-05, momentum=0.1, affine=True, track_running_stats=True)
    )
    (conv_layer2): Conv_layer(
      (conv): Conv1d(1027, 513, kernel_size=(1,), stride=(1,))
      (bn): BatchNorm1d(513, eps=1e-05, momentum=0.1, affine=True, track_running_stats=True)
    )
    (conv_layer3): Conv_layer(
      (conv): Conv1d(513, 256, kernel_size=(1,), stride=(1,))
      (bn): BatchNorm1d(256, eps=1e-05, momentum=0.1, affine=True, track_running_stats=True)
    )
    (conv4): Conv1d(256, 3, kernel_size=(1,), stride=(1,))
    (th): Tanh()
    (relu): ReLU()
  )
  (error_estimator): Error_Estimator(
    (conv_layer1): Conv_layer(
      (conv): Conv1d(1027, 1027, kernel_size=(1,), stride=(1,))
      (bn): BatchNorm1d(1027, eps=1e-05, momentum=0.1, affine=True, track_running_stats=True)
    )
    (conv_layer2): Conv_layer(
      (conv): Conv1d(1027, 513, kernel_size=(1,), stride=(1,))
      (bn): BatchNorm1d(513, eps=1e-05, momentum=0.1, affine=True, track_running_stats=True)
    )
    (conv_layer3): Conv_layer(
      (conv): Conv1d(513, 256, kernel_size=(1,), stride=(1,))
      (bn): BatchNorm1d(256, eps=1e-05, momentum=0.1, affine=True, track_running_stats=True)
    )
    (conv4): Conv1d(256, 1, kernel_size=(1,), stride=(1,))
    (sig): Sigmoid()
  )
)
json_stats: {"train_CD_loss": 0.16033507252440732, "val_CD_loss": 0.18176094875779264, "train_l2_loss": 0.007614858671748901, "val_l2_loss": 0.0014718586841576495, "val_CDs_loss": 0.18468046534893123, "epoch": 0, "lr": 0.001, "chair": 0.18468046534893123}
Subnet1(
  (deformNet1): DeformNet(
    (conv_layer1): Conv_layer(
      (conv): Conv1d(1027, 1027, kernel_size=(1,), stride=(1,))
      (bn): BatchNorm1d(1027, eps=1e-05, momentum=0.1, affine=True, track_running_stats=True)
    )
    (conv_layer2): Conv_layer(
      (conv): Conv1d(1027, 513, kernel_size=(1,), stride=(1,))
      (bn): BatchNorm1d(513, eps=1e-05, momentum=0.1, affine=True, track_running_stats=True)
    )
    (conv_layer3): Conv_layer(
      (conv): Conv1d(513, 256, kernel_size=(1,), stride=(1,))
      (bn): BatchNorm1d(256, eps=1e-05, momentum=0.1, affine=True, track_running_stats=True)
    )
    (conv4): Conv1d(256, 3, kernel_size=(1,), stride=(1,))
    (th): Tanh()
    (relu): ReLU()
  )
  (error_estimator): Error_Estimator(
    (conv_layer1): Conv_layer(
      (conv): Conv1d(1027, 1027, kernel_size=(1,), stride=(1,))
      (bn): BatchNorm1d(1027, eps=1e-05, momentum=0.1, affine=True, track_running_stats=True)
    )
    (conv_layer2): Conv_layer(
      (conv): Conv1d(1027, 513, kernel_size=(1,), stride=(1,))
      (bn): BatchNorm1d(513, eps=1e-05, momentum=0.1, affine=True, track_running_stats=True)
    )
    (conv_layer3): Conv_layer(
      (conv): Conv1d(513, 256, kernel_size=(1,), stride=(1,))
      (bn): BatchNorm1d(256, eps=1e-05, momentum=0.1, affine=True, track_running_stats=True)
    )
    (conv4): Conv1d(256, 1, kernel_size=(1,), stride=(1,))
    (sig): Sigmoid()
  )
)
json_stats: {"train_CD_loss": 0.005002684288603418, "val_CD_loss": 0.0076582215856327565, "train_l2_loss": 0.008823751021340928, "val_l2_loss": 0.004104646707906626, "val_CDs_loss": 0.013821774963722673, "epoch": 0, "lr": 0.001, "chair": 0.013821774963722673}
Subnet1(
  (deformNet1): DeformNet(
    (conv_layer1): Conv_layer(
      (conv): Conv1d(1027, 1027, kernel_size=(1,), stride=(1,))
      (bn): BatchNorm1d(1027, eps=1e-05, momentum=0.1, affine=True, track_running_stats=True)
    )
    (conv_layer2): Conv_layer(
      (conv): Conv1d(1027, 513, kernel_size=(1,), stride=(1,))
      (bn): BatchNorm1d(513, eps=1e-05, momentum=0.1, affine=True, track_running_stats=True)
    )
    (conv_layer3): Conv_layer(
      (conv): Conv1d(513, 256, kernel_size=(1,), stride=(1,))
      (bn): BatchNorm1d(256, eps=1e-05, momentum=0.1, affine=True, track_running_stats=True)
    )
    (conv4): Conv1d(256, 3, kernel_size=(1,), stride=(1,))
    (th): Tanh()
    (relu): ELU(alpha=1.0)
  )
  (error_estimator): Error_Estimator(
    (conv_layer1): Conv_layer(
      (conv): Conv1d(1027, 1027, kernel_size=(1,), stride=(1,))
      (bn): BatchNorm1d(1027, eps=1e-05, momentum=0.1, affine=True, track_running_stats=True)
    )
    (conv_layer2): Conv_layer(
      (conv): Conv1d(1027, 513, kernel_size=(1,), stride=(1,))
      (bn): BatchNorm1d(513, eps=1e-05, momentum=0.1, affine=True, track_running_stats=True)
    )
    (conv_layer3): Conv_layer(
      (conv): Conv1d(513, 256, kernel_size=(1,), stride=(1,))
      (bn): BatchNorm1d(256, eps=1e-05, momentum=0.1, affine=True, track_running_stats=True)
    )
    (conv4): Conv1d(256, 1, kernel_size=(1,), stride=(1,))
    (sig): Sigmoid()
  )
)
json_stats: {"train_CD_loss": 0.005006298862452454, "val_CD_loss": 0.00785219137621827, "train_l2_loss": 0.008827931475003853, "val_l2_loss": 0.004248470539053859, "val_CDs_loss": 0.014579947279809519, "epoch": 0, "lr": 0.001, "chair": 0.014579947279809519}
json_stats: {"train_CD_loss": 0.004139744454775663, "val_CD_loss": 0.08183157495981039, "train_l2_loss": 0.002755343038862681, "val_l2_loss": 0.02015059333034726, "val_CDs_loss": 0.08169166397216708, "epoch": 1, "lr": 0.001, "chair": 0.08169166397216708}
…
json_stats: {"train_CD_loss": 0.004273691215990659, "val_CD_loss": 0.01239075030871602, "train_l2_loss": 0.002026200121241238, "val_l2_loss": 0.010360273186030776, "val_CDs_loss": 0.01784530455289885, "epoch": 4, "lr": 0.001, "chair": 0.01784530455289885}
json_stats: {"train_CD_loss": 0.004509986470015171, "val_CD_loss": 0.012842781928389571, "train_l2_loss": 0.0016786615158814718, "val_l2_loss": 0.006202020877322485, "val_CDs_loss": 0.016871829343916372, "epoch": 5, "lr": 0.001, "chair": 0.016871829343916372}
json_stats: {"train_CD_loss": 0.00437869524501045, "val_CD_loss": 0.0071575716029592725, "train_l2_loss": 0.001496695914744016, "val_l2_loss": 0.0026020515157819486, "val_CDs_loss": 0.010931074186119922, "epoch": 6, "lr": 0.001, "chair": 0.010931074186119922}
Subnet1(
  (deformNet1): DeformNet(
    (conv_layer1): Conv_layer(
      (conv): Conv1d(1027, 1027, kernel_size=(1,), stride=(1,))
      (bn): BatchNorm1d(1027, eps=1e-05, momentum=0.1, affine=True, track_running_stats=True)
    )
    (conv_layer2): Conv_layer(
      (conv): Conv1d(1027, 513, kernel_size=(1,), stride=(1,))
      (bn): BatchNorm1d(513, eps=1e-05, momentum=0.1, affine=True, track_running_stats=True)
    )
    (conv_layer3): Conv_layer(
      (conv): Conv1d(513, 256, kernel_size=(1,), stride=(1,))
      (bn): BatchNorm1d(256, eps=1e-05, momentum=0.1, affine=True, track_running_stats=True)
    )
    (conv4): Conv1d(256, 3, kernel_size=(1,), stride=(1,))
    (th): Tanh()
  )
  (error_estimator): Error_Estimator(
    (conv_layer1): Conv_layer(
      (conv): Conv1d(1027, 1027, kernel_size=(1,), stride=(1,))
      (bn): BatchNorm1d(1027, eps=1e-05, momentum=0.1, affine=True, track_running_stats=True)
    )
    (conv_layer2): Conv_layer(
      (conv): Conv1d(1027, 513, kernel_size=(1,), stride=(1,))
      (bn): BatchNorm1d(513, eps=1e-05, momentum=0.1, affine=True, track_running_stats=True)
    )
    (conv_layer3): Conv_layer(
      (conv): Conv1d(513, 256, kernel_size=(1,), stride=(1,))
      (bn): BatchNorm1d(256, eps=1e-05, momentum=0.1, affine=True, track_running_stats=True)
    )
    (conv4): Conv1d(256, 1, kernel_size=(1,), stride=(1,))
    (sig): Sigmoid()
  )
)
json_stats: {"train_CD_loss": 0.004959426158765222, "val_CD_loss": 0.008366679642782655, "train_l2_loss": 0.008835938526317477, "val_l2_loss": 0.00351697989457915, "val_CDs_loss": 0.016000259191144343, "epoch": 0, "lr": 0.001, "chair": 0.016000259191144343}
json_stats: {"train_CD_loss": 0.00416473474161809, "val_CD_loss": 0.05577295490129049, "train_l2_loss": 0.002749038172666641, "val_l2_loss": 0.0153036811713909, "val_CDs_loss": 0.05601245918592741, "epoch": 1, "lr": 0.001, "chair": 0.05601245918592741}
Subnet1(
  (deformNet1): DeformNet(
    (conv_layer1): Conv_layer(
      (conv): Conv1d(1027, 1027, kernel_size=(1,), stride=(1,))
      (bn): BatchNorm1d(1027, eps=1e-05, momentum=0.1, affine=True, track_running_stats=True)
    )
    (conv_layer2): Conv_layer(
      (conv): Conv1d(1027, 513, kernel_size=(1,), stride=(1,))
      (bn): BatchNorm1d(513, eps=1e-05, momentum=0.1, affine=True, track_running_stats=True)
    )
    (conv_layer3): Conv_layer(
      (conv): Conv1d(513, 256, kernel_size=(1,), stride=(1,))
      (bn): BatchNorm1d(256, eps=1e-05, momentum=0.1, affine=True, track_running_stats=True)
    )
    (conv4): Conv1d(256, 3, kernel_size=(1,), stride=(1,))
    (th): Tanh()
  )
  (error_estimator): Error_Estimator(
    (conv_layer1): Conv_layer(
      (conv): Conv1d(1027, 1027, kernel_size=(1,), stride=(1,))
      (bn): BatchNorm1d(1027, eps=1e-05, momentum=0.1, affine=True, track_running_stats=True)
    )
    (conv_layer2): Conv_layer(
      (conv): Conv1d(1027, 513, kernel_size=(1,), stride=(1,))
      (bn): BatchNorm1d(513, eps=1e-05, momentum=0.1, affine=True, track_running_stats=True)
    )
    (conv_layer3): Conv_layer(
      (conv): Conv1d(513, 256, kernel_size=(1,), stride=(1,))
      (bn): BatchNorm1d(256, eps=1e-05, momentum=0.1, affine=True, track_running_stats=True)
    )
    (conv4): Conv1d(256, 1, kernel_size=(1,), stride=(1,))
    (sig): Sigmoid()
  )
)
json_stats: {"train_CD_loss": 0.004872466260841226, "val_CD_loss": 0.009220928202794736, "train_l2_loss": 0.009945581580840928, "val_l2_loss": 0.0064335336670452775, "val_CDs_loss": 0.015350676444900591, "epoch": 0, "lr": 0.001, "chair": 0.015350676444900591}
json_stats: {"train_CD_loss": 0.004161329207229702, "val_CD_loss": 0.008720639584109534, "train_l2_loss": 0.0027337218333473978, "val_l2_loss": 0.0037318917457014322, "val_CDs_loss": 0.01427905174881913, "epoch": 1, "lr": 0.001, "chair": 0.01427905174881913}
…
json_stats: {"train_CD_loss": 0.001938265548361575, "val_CD_loss": 0.004350132763732311, "train_l2_loss": 0.000254038096703452, "val_l2_loss": 0.0011297505725240118, "val_CDs_loss": 0.009276408972868393, "epoch": 418, "lr": 0.001, "chair": 0.009276408972868393}
json_stats: {"train_CD_loss": 0.001931649586185813, "val_CD_loss": 0.004374645433800165, "train_l2_loss": 0.00025451989572235, "val_l2_loss": 0.0011260396974204585, "val_CDs_loss": 0.009277808642404716, "epoch": 419, "lr": 0.001, "chair": 0.009277808642404716}
Subnet1(
  (deformNet1): DeformNet(
    (conv_layer1): Conv_layer(
      (conv): Conv1d(1027, 1027, kernel_size=(1,), stride=(1,))
      (bn): BatchNorm1d(1027, eps=1e-05, momentum=0.1, affine=True, track_running_stats=True)
    )
    (conv_layer2): Conv_layer(
      (conv): Conv1d(1027, 513, kernel_size=(1,), stride=(1,))
      (bn): BatchNorm1d(513, eps=1e-05, momentum=0.1, affine=True, track_running_stats=True)
    )
    (conv_layer3): Conv_layer(
      (conv): Conv1d(513, 256, kernel_size=(1,), stride=(1,))
      (bn): BatchNorm1d(256, eps=1e-05, momentum=0.1, affine=True, track_running_stats=True)
    )
    (conv4): Conv1d(256, 3, kernel_size=(1,), stride=(1,))
    (th): Tanh()
  )
  (error_estimator): Error_Estimator(
    (conv_layer1): Conv_layer(
      (conv): Conv1d(1027, 1027, kernel_size=(1,), stride=(1,))
      (bn): BatchNorm1d(1027, eps=1e-05, momentum=0.1, affine=True, track_running_stats=True)
    )
    (conv_layer2): Conv_layer(
      (conv): Conv1d(1027, 513, kernel_size=(1,), stride=(1,))
      (bn): BatchNorm1d(513, eps=1e-05, momentum=0.1, affine=True, track_running_stats=True)
    )
    (conv_layer3): Conv_layer(
      (conv): Conv1d(513, 256, kernel_size=(1,), stride=(1,))
      (bn): BatchNorm1d(256, eps=1e-05, momentum=0.1, affine=True, track_running_stats=True)
    )
    (conv4): Conv1d(256, 1, kernel_size=(1,), stride=(1,))
    (sig): Sigmoid()
  )
)
Subnet1(
  (deformNet1): DeformNet(
    (conv_layer1): Conv_layer(
      (conv): Conv1d(1027, 1027, kernel_size=(1,), stride=(1,))
      (bn): BatchNorm1d(1027, eps=1e-05, momentum=0.1, affine=True, track_running_stats=True)
    )
    (conv_layer2): Conv_layer(
      (conv): Conv1d(1027, 513, kernel_size=(1,), stride=(1,))
      (bn): BatchNorm1d(513, eps=1e-05, momentum=0.1, affine=True, track_running_stats=True)
    )
    (conv_layer3): Conv_layer(
      (conv): Conv1d(513, 256, kernel_size=(1,), stride=(1,))
      (bn): BatchNorm1d(256, eps=1e-05, momentum=0.1, affine=True, track_running_stats=True)
    )
    (conv4): Conv1d(256, 3, kernel_size=(1,), stride=(1,))
    (th): Tanh()
  )
  (error_estimator): Error_Estimator(
    (conv_layer1): Conv_layer(
      (conv): Conv1d(1027, 1027, kernel_size=(1,), stride=(1,))
      (bn): BatchNorm1d(1027, eps=1e-05, momentum=0.1, affine=True, track_running_stats=True)
    )
    (conv_layer2): Conv_layer(
      (conv): Conv1d(1027, 513, kernel_size=(1,), stride=(1,))
      (bn): BatchNorm1d(513, eps=1e-05, momentum=0.1, affine=True, track_running_stats=True)
    )
    (conv_layer3): Conv_layer(
      (conv): Conv1d(513, 256, kernel_size=(1,), stride=(1,))
      (bn): BatchNorm1d(256, eps=1e-05, momentum=0.1, affine=True, track_running_stats=True)
    )
    (conv4): Conv1d(256, 1, kernel_size=(1,), stride=(1,))
    (sig): Sigmoid()
  )
)
Subnet1(
  (deformNet1): DeformNet(
    (conv_layer1): Conv_layer(
      (conv): Conv1d(1027, 1027, kernel_size=(1,), stride=(1,))
      (bn): BatchNorm1d(1027, eps=1e-05, momentum=0.1, affine=True, track_running_stats=True)
    )
    (conv_layer2): Conv_layer(
      (conv): Conv1d(1027, 513, kernel_size=(1,), stride=(1,))
      (bn): BatchNorm1d(513, eps=1e-05, momentum=0.1, affine=True, track_running_stats=True)
    )
    (conv_layer3): Conv_layer(
      (conv): Conv1d(513, 256, kernel_size=(1,), stride=(1,))
      (bn): BatchNorm1d(256, eps=1e-05, momentum=0.1, affine=True, track_running_stats=True)
    )
    (conv4): Conv1d(256, 3, kernel_size=(1,), stride=(1,))
    (th): Tanh()
  )
  (error_estimator): Error_Estimator(
    (conv_layer1): Conv_layer(
      (conv): Conv1d(1027, 1027, kernel_size=(1,), stride=(1,))
      (bn): BatchNorm1d(1027, eps=1e-05, momentum=0.1, affine=True, track_running_stats=True)
    )
    (conv_layer2): Conv_layer(
      (conv): Conv1d(1027, 513, kernel_size=(1,), stride=(1,))
      (bn): BatchNorm1d(513, eps=1e-05, momentum=0.1, affine=True, track_running_stats=True)
    )
    (conv_layer3): Conv_layer(
      (conv): Conv1d(513, 256, kernel_size=(1,), stride=(1,))
      (bn): BatchNorm1d(256, eps=1e-05, momentum=0.1, affine=True, track_running_stats=True)
    )
    (conv4): Conv1d(256, 1, kernel_size=(1,), stride=(1,))
    (sig): Sigmoid()
  )
)
Subnet1(
  (deformNet1): DeformNet(
    (conv_layer1): Conv_layer(
      (conv): Conv1d(1027, 1027, kernel_size=(1,), stride=(1,))
      (bn): BatchNorm1d(1027, eps=1e-05, momentum=0.1, affine=True, track_running_stats=True)
    )
    (conv_layer2): Conv_layer(
      (conv): Conv1d(1027, 513, kernel_size=(1,), stride=(1,))
      (bn): BatchNorm1d(513, eps=1e-05, momentum=0.1, affine=True, track_running_stats=True)
    )
    (conv_layer3): Conv_layer(
      (conv): Conv1d(513, 256, kernel_size=(1,), stride=(1,))
      (bn): BatchNorm1d(256, eps=1e-05, momentum=0.1, affine=True, track_running_stats=True)
    )
    (conv4): Conv1d(256, 3, kernel_size=(1,), stride=(1,))
    (th): Tanh()
  )
  (error_estimator): Error_Estimator(
    (conv_layer1): Conv_layer(
      (conv): Conv1d(1027, 1027, kernel_size=(1,), stride=(1,))
      (bn): BatchNorm1d(1027, eps=1e-05, momentum=0.1, affine=True, track_running_stats=True)
    )
    (conv_layer2): Conv_layer(
      (conv): Conv1d(1027, 513, kernel_size=(1,), stride=(1,))
      (bn): BatchNorm1d(513, eps=1e-05, momentum=0.1, affine=True, track_running_stats=True)
    )
    (conv_layer3): Conv_layer(
      (conv): Conv1d(513, 256, kernel_size=(1,), stride=(1,))
      (bn): BatchNorm1d(256, eps=1e-05, momentum=0.1, affine=True, track_running_stats=True)
    )
    (conv4): Conv1d(256, 1, kernel_size=(1,), stride=(1,))
    (sig): Sigmoid()
  )
)
Subnet1(
  (deformNet1): DeformNet(
    (conv_layer1): Conv_layer(
      (conv): Conv1d(1027, 1027, kernel_size=(1,), stride=(1,))
      (bn): BatchNorm1d(1027, eps=1e-05, momentum=0.1, affine=True, track_running_stats=True)
    )
    (conv_layer2): Conv_layer(
      (conv): Conv1d(1027, 513, kernel_size=(1,), stride=(1,))
      (bn): BatchNorm1d(513, eps=1e-05, momentum=0.1, affine=True, track_running_stats=True)
    )
    (conv_layer3): Conv_layer(
      (conv): Conv1d(513, 256, kernel_size=(1,), stride=(1,))
      (bn): BatchNorm1d(256, eps=1e-05, momentum=0.1, affine=True, track_running_stats=True)
    )
    (conv4): Conv1d(256, 3, kernel_size=(1,), stride=(1,))
    (th): Tanh()
  )
  (error_estimator): Error_Estimator(
    (conv_layer1): Conv_layer(
      (conv): Conv1d(1027, 1027, kernel_size=(1,), stride=(1,))
      (bn): BatchNorm1d(1027, eps=1e-05, momentum=0.1, affine=True, track_running_stats=True)
    )
    (conv_layer2): Conv_layer(
      (conv): Conv1d(1027, 513, kernel_size=(1,), stride=(1,))
      (bn): BatchNorm1d(513, eps=1e-05, momentum=0.1, affine=True, track_running_stats=True)
    )
    (conv_layer3): Conv_layer(
      (conv): Conv1d(513, 256, kernel_size=(1,), stride=(1,))
      (bn): BatchNorm1d(256, eps=1e-05, momentum=0.1, affine=True, track_running_stats=True)
    )
    (conv4): Conv1d(256, 1, kernel_size=(1,), stride=(1,))
    (sig): Sigmoid()
  )
)
Subnet1(
  (deformNet1): DeformNet(
    (conv_layer1): Conv_layer(
      (conv): Conv1d(1027, 1027, kernel_size=(1,), stride=(1,))
      (bn): BatchNorm1d(1027, eps=1e-05, momentum=0.1, affine=True, track_running_stats=True)
    )
    (conv_layer2): Conv_layer(
      (conv): Conv1d(1027, 513, kernel_size=(1,), stride=(1,))
      (bn): BatchNorm1d(513, eps=1e-05, momentum=0.1, affine=True, track_running_stats=True)
    )
    (conv_layer3): Conv_layer(
      (conv): Conv1d(513, 256, kernel_size=(1,), stride=(1,))
      (bn): BatchNorm1d(256, eps=1e-05, momentum=0.1, affine=True, track_running_stats=True)
    )
    (conv4): Conv1d(256, 3, kernel_size=(1,), stride=(1,))
    (th): Tanh()
  )
  (error_estimator): Error_Estimator(
    (conv_layer1): Conv_layer(
      (conv): Conv1d(1027, 1027, kernel_size=(1,), stride=(1,))
      (bn): BatchNorm1d(1027, eps=1e-05, momentum=0.1, affine=True, track_running_stats=True)
    )
    (conv_layer2): Conv_layer(
      (conv): Conv1d(1027, 513, kernel_size=(1,), stride=(1,))
      (bn): BatchNorm1d(513, eps=1e-05, momentum=0.1, affine=True, track_running_stats=True)
    )
    (conv_layer3): Conv_layer(
      (conv): Conv1d(513, 256, kernel_size=(1,), stride=(1,))
      (bn): BatchNorm1d(256, eps=1e-05, momentum=0.1, affine=True, track_running_stats=True)
    )
    (conv4): Conv1d(256, 1, kernel_size=(1,), stride=(1,))
    (sig): Sigmoid()
  )
)
Subnet1(
  (deformNet1): DeformNet(
    (conv_layer1): Conv_layer(
      (conv): Conv1d(1027, 1027, kernel_size=(1,), stride=(1,))
      (bn): BatchNorm1d(1027, eps=1e-05, momentum=0.1, affine=True, track_running_stats=True)
    )
    (conv_layer2): Conv_layer(
      (conv): Conv1d(1027, 513, kernel_size=(1,), stride=(1,))
      (bn): BatchNorm1d(513, eps=1e-05, momentum=0.1, affine=True, track_running_stats=True)
    )
    (conv_layer3): Conv_layer(
      (conv): Conv1d(513, 256, kernel_size=(1,), stride=(1,))
      (bn): BatchNorm1d(256, eps=1e-05, momentum=0.1, affine=True, track_running_stats=True)
    )
    (conv4): Conv1d(256, 3, kernel_size=(1,), stride=(1,))
    (th): Tanh()
  )
  (error_estimator): Error_Estimator(
    (conv_layer1): Conv_layer(
      (conv): Conv1d(1027, 1027, kernel_size=(1,), stride=(1,))
      (bn): BatchNorm1d(1027, eps=1e-05, momentum=0.1, affine=True, track_running_stats=True)
    )
    (conv_layer2): Conv_layer(
      (conv): Conv1d(1027, 513, kernel_size=(1,), stride=(1,))
      (bn): BatchNorm1d(513, eps=1e-05, momentum=0.1, affine=True, track_running_stats=True)
    )
    (conv_layer3): Conv_layer(
      (conv): Conv1d(513, 256, kernel_size=(1,), stride=(1,))
      (bn): BatchNorm1d(256, eps=1e-05, momentum=0.1, affine=True, track_running_stats=True)
    )
    (conv4): Conv1d(256, 1, kernel_size=(1,), stride=(1,))
    (sig): Sigmoid()
  )
)
Subnet1(
  (deformNet1): DeformNet(
    (conv_layer1): Conv_layer(
      (conv): Conv1d(1027, 1027, kernel_size=(1,), stride=(1,))
      (bn): BatchNorm1d(1027, eps=1e-05, momentum=0.1, affine=True, track_running_stats=True)
    )
    (conv_layer2): Conv_layer(
      (conv): Conv1d(1027, 513, kernel_size=(1,), stride=(1,))
      (bn): BatchNorm1d(513, eps=1e-05, momentum=0.1, affine=True, track_running_stats=True)
    )
    (conv_layer3): Conv_layer(
      (conv): Conv1d(513, 256, kernel_size=(1,), stride=(1,))
      (bn): BatchNorm1d(256, eps=1e-05, momentum=0.1, affine=True, track_running_stats=True)
    )
    (conv4): Conv1d(256, 3, kernel_size=(1,), stride=(1,))
    (th): Tanh()
  )
  (error_estimator): Error_Estimator(
    (conv_layer1): Conv_layer(
      (conv): Conv1d(1027, 1027, kernel_size=(1,), stride=(1,))
      (bn): BatchNorm1d(1027, eps=1e-05, momentum=0.1, affine=True, track_running_stats=True)
    )
    (conv_layer2): Conv_layer(
      (conv): Conv1d(1027, 513, kernel_size=(1,), stride=(1,))
      (bn): BatchNorm1d(513, eps=1e-05, momentum=0.1, affine=True, track_running_stats=True)
    )
    (conv_layer3): Conv_layer(
      (conv): Conv1d(513, 256, kernel_size=(1,), stride=(1,))
      (bn): BatchNorm1d(256, eps=1e-05, momentum=0.1, affine=True, track_running_stats=True)
    )
    (conv4): Conv1d(256, 1, kernel_size=(1,), stride=(1,))
    (sig): Sigmoid()
  )
)
Subnet1(
  (deformNet1): DeformNet(
    (conv_layer1): Conv_layer(
      (conv): Conv1d(1027, 1027, kernel_size=(1,), stride=(1,))
      (bn): BatchNorm1d(1027, eps=1e-05, momentum=0.1, affine=True, track_running_stats=True)
    )
    (conv_layer2): Conv_layer(
      (conv): Conv1d(1027, 513, kernel_size=(1,), stride=(1,))
      (bn): BatchNorm1d(513, eps=1e-05, momentum=0.1, affine=True, track_running_stats=True)
    )
    (conv_layer3): Conv_layer(
      (conv): Conv1d(513, 256, kernel_size=(1,), stride=(1,))
      (bn): BatchNorm1d(256, eps=1e-05, momentum=0.1, affine=True, track_running_stats=True)
    )
    (conv4): Conv1d(256, 3, kernel_size=(1,), stride=(1,))
    (th): Tanh()
  )
  (error_estimator): Error_Estimator(
    (conv_layer1): Conv_layer(
      (conv): Conv1d(1027, 1027, kernel_size=(1,), stride=(1,))
      (bn): BatchNorm1d(1027, eps=1e-05, momentum=0.1, affine=True, track_running_stats=True)
    )
    (conv_layer2): Conv_layer(
      (conv): Conv1d(1027, 513, kernel_size=(1,), stride=(1,))
      (bn): BatchNorm1d(513, eps=1e-05, momentum=0.1, affine=True, track_running_stats=True)
    )
    (conv_layer3): Conv_layer(
      (conv): Conv1d(513, 256, kernel_size=(1,), stride=(1,))
      (bn): BatchNorm1d(256, eps=1e-05, momentum=0.1, affine=True, track_running_stats=True)
    )
    (conv4): Conv1d(256, 1, kernel_size=(1,), stride=(1,))
    (sig): Sigmoid()
  )
)
Subnet1(
  (deformNet1): DeformNet(
    (conv_layer1): Conv_layer(
      (conv): Conv1d(1027, 1027, kernel_size=(1,), stride=(1,))
      (bn): BatchNorm1d(1027, eps=1e-05, momentum=0.1, affine=True, track_running_stats=True)
    )
    (conv_layer2): Conv_layer(
      (conv): Conv1d(1027, 513, kernel_size=(1,), stride=(1,))
      (bn): BatchNorm1d(513, eps=1e-05, momentum=0.1, affine=True, track_running_stats=True)
    )
    (conv_layer3): Conv_layer(
      (conv): Conv1d(513, 256, kernel_size=(1,), stride=(1,))
      (bn): BatchNorm1d(256, eps=1e-05, momentum=0.1, affine=True, track_running_stats=True)
    )
    (conv4): Conv1d(256, 3, kernel_size=(1,), stride=(1,))
    (th): Tanh()
  )
  (error_estimator): Error_Estimator(
    (conv_layer1): Conv_layer(
      (conv): Conv1d(1027, 1027, kernel_size=(1,), stride=(1,))
      (bn): BatchNorm1d(1027, eps=1e-05, momentum=0.1, affine=True, track_running_stats=True)
    )
    (conv_layer2): Conv_layer(
      (conv): Conv1d(1027, 513, kernel_size=(1,), stride=(1,))
      (bn): BatchNorm1d(513, eps=1e-05, momentum=0.1, affine=True, track_running_stats=True)
    )
    (conv_layer3): Conv_layer(
      (conv): Conv1d(513, 256, kernel_size=(1,), stride=(1,))
      (bn): BatchNorm1d(256, eps=1e-05, momentum=0.1, affine=True, track_running_stats=True)
    )
    (conv4): Conv1d(256, 1, kernel_size=(1,), stride=(1,))
    (sig): Sigmoid()
  )
)
Subnet1(
  (deformNet1): DeformNet(
    (conv_layer1): Conv_layer(
      (conv): Conv1d(1027, 1027, kernel_size=(1,), stride=(1,))
      (bn): BatchNorm1d(1027, eps=1e-05, momentum=0.1, affine=True, track_running_stats=True)
    )
    (conv_layer2): Conv_layer(
      (conv): Conv1d(1027, 513, kernel_size=(1,), stride=(1,))
      (bn): BatchNorm1d(513, eps=1e-05, momentum=0.1, affine=True, track_running_stats=True)
    )
    (conv_layer3): Conv_layer(
      (conv): Conv1d(513, 256, kernel_size=(1,), stride=(1,))
      (bn): BatchNorm1d(256, eps=1e-05, momentum=0.1, affine=True, track_running_stats=True)
    )
    (conv4): Conv1d(256, 3, kernel_size=(1,), stride=(1,))
    (th): Tanh()
  )
  (error_estimator): Error_Estimator(
    (conv_layer1): Conv_layer(
      (conv): Conv1d(1027, 1027, kernel_size=(1,), stride=(1,))
      (bn): BatchNorm1d(1027, eps=1e-05, momentum=0.1, affine=True, track_running_stats=True)
    )
    (conv_layer2): Conv_layer(
      (conv): Conv1d(1027, 513, kernel_size=(1,), stride=(1,))
      (bn): BatchNorm1d(513, eps=1e-05, momentum=0.1, affine=True, track_running_stats=True)
    )
    (conv_layer3): Conv_layer(
      (conv): Conv1d(513, 256, kernel_size=(1,), stride=(1,))
      (bn): BatchNorm1d(256, eps=1e-05, momentum=0.1, affine=True, track_running_stats=True)
    )
    (conv4): Conv1d(256, 1, kernel_size=(1,), stride=(1,))
    (sig): Sigmoid()
  )
)
Subnet1(
  (deformNet1): DeformNet(
    (conv_layer1): Conv_layer(
      (conv): Conv1d(1027, 1027, kernel_size=(1,), stride=(1,))
      (bn): BatchNorm1d(1027, eps=1e-05, momentum=0.1, affine=True, track_running_stats=True)
    )
    (conv_layer2): Conv_layer(
      (conv): Conv1d(1027, 513, kernel_size=(1,), stride=(1,))
      (bn): BatchNorm1d(513, eps=1e-05, momentum=0.1, affine=True, track_running_stats=True)
    )
    (conv_layer3): Conv_layer(
      (conv): Conv1d(513, 256, kernel_size=(1,), stride=(1,))
      (bn): BatchNorm1d(256, eps=1e-05, momentum=0.1, affine=True, track_running_stats=True)
    )
    (conv4): Conv1d(256, 3, kernel_size=(1,), stride=(1,))
    (th): Tanh()
  )
  (error_estimator): Error_Estimator(
    (conv_layer1): Conv_layer(
      (conv): Conv1d(1027, 1027, kernel_size=(1,), stride=(1,))
      (bn): BatchNorm1d(1027, eps=1e-05, momentum=0.1, affine=True, track_running_stats=True)
    )
    (conv_layer2): Conv_layer(
      (conv): Conv1d(1027, 513, kernel_size=(1,), stride=(1,))
      (bn): BatchNorm1d(513, eps=1e-05, momentum=0.1, affine=True, track_running_stats=True)
    )
    (conv_layer3): Conv_layer(
      (conv): Conv1d(513, 256, kernel_size=(1,), stride=(1,))
      (bn): BatchNorm1d(256, eps=1e-05, momentum=0.1, affine=True, track_running_stats=True)
    )
    (conv4): Conv1d(256, 1, kernel_size=(1,), stride=(1,))
    (sig): Sigmoid()
  )
)
Subnet1(
  (deformNet1): DeformNet(
    (conv_layer1): Conv_layer(
      (conv): Conv1d(1027, 1027, kernel_size=(1,), stride=(1,))
      (bn): BatchNorm1d(1027, eps=1e-05, momentum=0.1, affine=True, track_running_stats=True)
    )
    (conv_layer2): Conv_layer(
      (conv): Conv1d(1027, 513, kernel_size=(1,), stride=(1,))
      (bn): BatchNorm1d(513, eps=1e-05, momentum=0.1, affine=True, track_running_stats=True)
    )
    (conv_layer3): Conv_layer(
      (conv): Conv1d(513, 256, kernel_size=(1,), stride=(1,))
      (bn): BatchNorm1d(256, eps=1e-05, momentum=0.1, affine=True, track_running_stats=True)
    )
    (conv4): Conv1d(256, 3, kernel_size=(1,), stride=(1,))
    (th): Tanh()
  )
  (error_estimator): Error_Estimator(
    (conv_layer1): Conv_layer(
      (conv): Conv1d(1027, 1027, kernel_size=(1,), stride=(1,))
      (bn): BatchNorm1d(1027, eps=1e-05, momentum=0.1, affine=True, track_running_stats=True)
    )
    (conv_layer2): Conv_layer(
      (conv): Conv1d(1027, 513, kernel_size=(1,), stride=(1,))
      (bn): BatchNorm1d(513, eps=1e-05, momentum=0.1, affine=True, track_running_stats=True)
    )
    (conv_layer3): Conv_layer(
      (conv): Conv1d(513, 256, kernel_size=(1,), stride=(1,))
      (bn): BatchNorm1d(256, eps=1e-05, momentum=0.1, affine=True, track_running_stats=True)
    )
    (conv4): Conv1d(256, 1, kernel_size=(1,), stride=(1,))
    (sig): Sigmoid()
  )
)
Subnet1(
  (deformNet1): DeformNet(
    (conv_layer1): Conv_layer(
      (conv): Conv1d(1027, 1027, kernel_size=(1,), stride=(1,))
      (bn): BatchNorm1d(1027, eps=1e-05, momentum=0.1, affine=True, track_running_stats=True)
    )
    (conv_layer2): Conv_layer(
      (conv): Conv1d(1027, 513, kernel_size=(1,), stride=(1,))
      (bn): BatchNorm1d(513, eps=1e-05, momentum=0.1, affine=True, track_running_stats=True)
    )
    (conv_layer3): Conv_layer(
      (conv): Conv1d(513, 256, kernel_size=(1,), stride=(1,))
      (bn): BatchNorm1d(256, eps=1e-05, momentum=0.1, affine=True, track_running_stats=True)
    )
    (conv4): Conv1d(256, 3, kernel_size=(1,), stride=(1,))
    (th): Tanh()
  )
  (error_estimator): Error_Estimator(
    (conv_layer1): Conv_layer(
      (conv): Conv1d(1027, 1027, kernel_size=(1,), stride=(1,))
      (bn): BatchNorm1d(1027, eps=1e-05, momentum=0.1, affine=True, track_running_stats=True)
    )
    (conv_layer2): Conv_layer(
      (conv): Conv1d(1027, 513, kernel_size=(1,), stride=(1,))
      (bn): BatchNorm1d(513, eps=1e-05, momentum=0.1, affine=True, track_running_stats=True)
    )
    (conv_layer3): Conv_layer(
      (conv): Conv1d(513, 256, kernel_size=(1,), stride=(1,))
      (bn): BatchNorm1d(256, eps=1e-05, momentum=0.1, affine=True, track_running_stats=True)
    )
    (conv4): Conv1d(256, 1, kernel_size=(1,), stride=(1,))
    (sig): Sigmoid()
  )
)
Subnet1(
  (deformNet1): DeformNet(
    (conv_layer1): Conv_layer(
      (conv): Conv1d(1027, 1027, kernel_size=(1,), stride=(1,))
      (bn): BatchNorm1d(1027, eps=1e-05, momentum=0.1, affine=True, track_running_stats=True)
    )
    (conv_layer2): Conv_layer(
      (conv): Conv1d(1027, 513, kernel_size=(1,), stride=(1,))
      (bn): BatchNorm1d(513, eps=1e-05, momentum=0.1, affine=True, track_running_stats=True)
    )
    (conv_layer3): Conv_layer(
      (conv): Conv1d(513, 256, kernel_size=(1,), stride=(1,))
      (bn): BatchNorm1d(256, eps=1e-05, momentum=0.1, affine=True, track_running_stats=True)
    )
    (conv4): Conv1d(256, 3, kernel_size=(1,), stride=(1,))
    (th): Tanh()
  )
  (error_estimator): Error_Estimator(
    (conv_layer1): Conv_layer(
      (conv): Conv1d(1027, 1027, kernel_size=(1,), stride=(1,))
      (bn): BatchNorm1d(1027, eps=1e-05, momentum=0.1, affine=True, track_running_stats=True)
    )
    (conv_layer2): Conv_layer(
      (conv): Conv1d(1027, 513, kernel_size=(1,), stride=(1,))
      (bn): BatchNorm1d(513, eps=1e-05, momentum=0.1, affine=True, track_running_stats=True)
    )
    (conv_layer3): Conv_layer(
      (conv): Conv1d(513, 256, kernel_size=(1,), stride=(1,))
      (bn): BatchNorm1d(256, eps=1e-05, momentum=0.1, affine=True, track_running_stats=True)
    )
    (conv4): Conv1d(256, 1, kernel_size=(1,), stride=(1,))
    (sig): Sigmoid()
  )
)
Subnet1(
  (deformNet1): DeformNet(
    (conv_layer1): Conv_layer(
      (conv): Conv1d(1027, 1027, kernel_size=(1,), stride=(1,))
      (bn): BatchNorm1d(1027, eps=1e-05, momentum=0.1, affine=True, track_running_stats=True)
    )
    (conv_layer2): Conv_layer(
      (conv): Conv1d(1027, 513, kernel_size=(1,), stride=(1,))
      (bn): BatchNorm1d(513, eps=1e-05, momentum=0.1, affine=True, track_running_stats=True)
    )
    (conv_layer3): Conv_layer(
      (conv): Conv1d(513, 256, kernel_size=(1,), stride=(1,))
      (bn): BatchNorm1d(256, eps=1e-05, momentum=0.1, affine=True, track_running_stats=True)
    )
    (conv4): Conv1d(256, 3, kernel_size=(1,), stride=(1,))
    (th): Tanh()
  )
  (error_estimator): Error_Estimator(
    (conv_layer1): Conv_layer(
      (conv): Conv1d(1027, 1027, kernel_size=(1,), stride=(1,))
      (bn): BatchNorm1d(1027, eps=1e-05, momentum=0.1, affine=True, track_running_stats=True)
    )
    (conv_layer2): Conv_layer(
      (conv): Conv1d(1027, 513, kernel_size=(1,), stride=(1,))
      (bn): BatchNorm1d(513, eps=1e-05, momentum=0.1, affine=True, track_running_stats=True)
    )
    (conv_layer3): Conv_layer(
      (conv): Conv1d(513, 256, kernel_size=(1,), stride=(1,))
      (bn): BatchNorm1d(256, eps=1e-05, momentum=0.1, affine=True, track_running_stats=True)
    )
    (conv4): Conv1d(256, 1, kernel_size=(1,), stride=(1,))
    (sig): Sigmoid()
  )
)
Subnet1(
  (deformNet1): DeformNet(
    (conv_layer1): Conv_layer(
      (conv): Conv1d(1027, 1027, kernel_size=(1,), stride=(1,))
      (bn): BatchNorm1d(1027, eps=1e-05, momentum=0.1, affine=True, track_running_stats=True)
    )
    (conv_layer2): Conv_layer(
      (conv): Conv1d(1027, 513, kernel_size=(1,), stride=(1,))
      (bn): BatchNorm1d(513, eps=1e-05, momentum=0.1, affine=True, track_running_stats=True)
    )
    (conv_layer3): Conv_layer(
      (conv): Conv1d(513, 256, kernel_size=(1,), stride=(1,))
      (bn): BatchNorm1d(256, eps=1e-05, momentum=0.1, affine=True, track_running_stats=True)
    )
    (conv4): Conv1d(256, 3, kernel_size=(1,), stride=(1,))
    (th): Tanh()
  )
  (error_estimator): Error_Estimator(
    (conv_layer1): Conv_layer(
      (conv): Conv1d(1027, 1027, kernel_size=(1,), stride=(1,))
      (bn): BatchNorm1d(1027, eps=1e-05, momentum=0.1, affine=True, track_running_stats=True)
    )
    (conv_layer2): Conv_layer(
      (conv): Conv1d(1027, 513, kernel_size=(1,), stride=(1,))
      (bn): BatchNorm1d(513, eps=1e-05, momentum=0.1, affine=True, track_running_stats=True)
    )
    (conv_layer3): Conv_layer(
      (conv): Conv1d(513, 256, kernel_size=(1,), stride=(1,))
      (bn): BatchNorm1d(256, eps=1e-05, momentum=0.1, affine=True, track_running_stats=True)
    )
    (conv4): Conv1d(256, 1, kernel_size=(1,), stride=(1,))
    (sig): Sigmoid()
  )
)
Subnet1(
  (deformNet1): DeformNet(
    (conv_layer1): Conv_layer(
      (conv): Conv1d(1027, 1027, kernel_size=(1,), stride=(1,))
      (bn): BatchNorm1d(1027, eps=1e-05, momentum=0.1, affine=True, track_running_stats=True)
    )
    (conv_layer2): Conv_layer(
      (conv): Conv1d(1027, 513, kernel_size=(1,), stride=(1,))
      (bn): BatchNorm1d(513, eps=1e-05, momentum=0.1, affine=True, track_running_stats=True)
    )
    (conv_layer3): Conv_layer(
      (conv): Conv1d(513, 256, kernel_size=(1,), stride=(1,))
      (bn): BatchNorm1d(256, eps=1e-05, momentum=0.1, affine=True, track_running_stats=True)
    )
    (conv4): Conv1d(256, 3, kernel_size=(1,), stride=(1,))
    (th): Tanh()
  )
  (error_estimator): Error_Estimator(
    (conv_layer1): Conv_layer(
      (conv): Conv1d(1027, 1027, kernel_size=(1,), stride=(1,))
      (bn): BatchNorm1d(1027, eps=1e-05, momentum=0.1, affine=True, track_running_stats=True)
    )
    (conv_layer2): Conv_layer(
      (conv): Conv1d(1027, 513, kernel_size=(1,), stride=(1,))
      (bn): BatchNorm1d(513, eps=1e-05, momentum=0.1, affine=True, track_running_stats=True)
    )
    (conv_layer3): Conv_layer(
      (conv): Conv1d(513, 256, kernel_size=(1,), stride=(1,))
      (bn): BatchNorm1d(256, eps=1e-05, momentum=0.1, affine=True, track_running_stats=True)
    )
    (conv4): Conv1d(256, 1, kernel_size=(1,), stride=(1,))
    (sig): Sigmoid()
  )
)
Subnet1(
  (deformNet1): DeformNet(
    (conv_layer1): Conv_layer(
      (conv): Conv1d(1027, 1027, kernel_size=(1,), stride=(1,))
      (bn): BatchNorm1d(1027, eps=1e-05, momentum=0.1, affine=True, track_running_stats=True)
    )
    (conv_layer2): Conv_layer(
      (conv): Conv1d(1027, 513, kernel_size=(1,), stride=(1,))
      (bn): BatchNorm1d(513, eps=1e-05, momentum=0.1, affine=True, track_running_stats=True)
    )
    (conv_layer3): Conv_layer(
      (conv): Conv1d(513, 256, kernel_size=(1,), stride=(1,))
      (bn): BatchNorm1d(256, eps=1e-05, momentum=0.1, affine=True, track_running_stats=True)
    )
    (conv4): Conv1d(256, 3, kernel_size=(1,), stride=(1,))
    (th): Tanh()
  )
  (error_estimator): Error_Estimator(
    (conv_layer1): Conv_layer(
      (conv): Conv1d(1027, 1027, kernel_size=(1,), stride=(1,))
      (bn): BatchNorm1d(1027, eps=1e-05, momentum=0.1, affine=True, track_running_stats=True)
    )
    (conv_layer2): Conv_layer(
      (conv): Conv1d(1027, 513, kernel_size=(1,), stride=(1,))
      (bn): BatchNorm1d(513, eps=1e-05, momentum=0.1, affine=True, track_running_stats=True)
    )
    (conv_layer3): Conv_layer(
      (conv): Conv1d(513, 256, kernel_size=(1,), stride=(1,))
      (bn): BatchNorm1d(256, eps=1e-05, momentum=0.1, affine=True, track_running_stats=True)
    )
    (conv4): Conv1d(256, 1, kernel_size=(1,), stride=(1,))
    (sig): Sigmoid()
  )
)
Subnet1(
  (deformNet1): DeformNet(
    (conv_layer1): Conv_layer(
      (conv): Conv1d(1027, 1027, kernel_size=(1,), stride=(1,))
      (bn): BatchNorm1d(1027, eps=1e-05, momentum=0.1, affine=True, track_running_stats=True)
    )
    (conv_layer2): Conv_layer(
      (conv): Conv1d(1027, 513, kernel_size=(1,), stride=(1,))
      (bn): BatchNorm1d(513, eps=1e-05, momentum=0.1, affine=True, track_running_stats=True)
    )
    (conv_layer3): Conv_layer(
      (conv): Conv1d(513, 256, kernel_size=(1,), stride=(1,))
      (bn): BatchNorm1d(256, eps=1e-05, momentum=0.1, affine=True, track_running_stats=True)
    )
    (conv4): Conv1d(256, 3, kernel_size=(1,), stride=(1,))
    (th): Tanh()
  )
  (error_estimator): Error_Estimator(
    (conv_layer1): Conv_layer(
      (conv): Conv1d(1027, 1027, kernel_size=(1,), stride=(1,))
      (bn): BatchNorm1d(1027, eps=1e-05, momentum=0.1, affine=True, track_running_stats=True)
    )
    (conv_layer2): Conv_layer(
      (conv): Conv1d(1027, 513, kernel_size=(1,), stride=(1,))
      (bn): BatchNorm1d(513, eps=1e-05, momentum=0.1, affine=True, track_running_stats=True)
    )
    (conv_layer3): Conv_layer(
      (conv): Conv1d(513, 256, kernel_size=(1,), stride=(1,))
      (bn): BatchNorm1d(256, eps=1e-05, momentum=0.1, affine=True, track_running_stats=True)
    )
    (conv4): Conv1d(256, 1, kernel_size=(1,), stride=(1,))
    (sig): Sigmoid()
  )
)
Subnet1(
  (deformNet1): DeformNet(
    (conv_layer1): Conv_layer(
      (conv): Conv1d(1027, 1027, kernel_size=(1,), stride=(1,))
      (bn): BatchNorm1d(1027, eps=1e-05, momentum=0.1, affine=True, track_running_stats=True)
    )
    (conv_layer2): Conv_layer(
      (conv): Conv1d(1027, 513, kernel_size=(1,), stride=(1,))
      (bn): BatchNorm1d(513, eps=1e-05, momentum=0.1, affine=True, track_running_stats=True)
    )
    (conv_layer3): Conv_layer(
      (conv): Conv1d(513, 256, kernel_size=(1,), stride=(1,))
      (bn): BatchNorm1d(256, eps=1e-05, momentum=0.1, affine=True, track_running_stats=True)
    )
    (conv4): Conv1d(256, 3, kernel_size=(1,), stride=(1,))
    (th): Tanh()
  )
  (error_estimator): Error_Estimator(
    (conv_layer1): Conv_layer(
      (conv): Conv1d(1027, 1027, kernel_size=(1,), stride=(1,))
      (bn): BatchNorm1d(1027, eps=1e-05, momentum=0.1, affine=True, track_running_stats=True)
    )
    (conv_layer2): Conv_layer(
      (conv): Conv1d(1027, 513, kernel_size=(1,), stride=(1,))
      (bn): BatchNorm1d(513, eps=1e-05, momentum=0.1, affine=True, track_running_stats=True)
    )
    (conv_layer3): Conv_layer(
      (conv): Conv1d(513, 256, kernel_size=(1,), stride=(1,))
      (bn): BatchNorm1d(256, eps=1e-05, momentum=0.1, affine=True, track_running_stats=True)
    )
    (conv4): Conv1d(256, 1, kernel_size=(1,), stride=(1,))
    (sig): Sigmoid()
  )
)
Subnet1(
  (deformNet1): DeformNet(
    (conv_layer1): Conv_layer(
      (conv): Conv1d(1027, 1027, kernel_size=(1,), stride=(1,))
      (bn): BatchNorm1d(1027, eps=1e-05, momentum=0.1, affine=True, track_running_stats=True)
    )
    (conv_layer2): Conv_layer(
      (conv): Conv1d(1027, 513, kernel_size=(1,), stride=(1,))
      (bn): BatchNorm1d(513, eps=1e-05, momentum=0.1, affine=True, track_running_stats=True)
    )
    (conv_layer3): Conv_layer(
      (conv): Conv1d(513, 256, kernel_size=(1,), stride=(1,))
      (bn): BatchNorm1d(256, eps=1e-05, momentum=0.1, affine=True, track_running_stats=True)
    )
    (conv4): Conv1d(256, 3, kernel_size=(1,), stride=(1,))
    (th): Tanh()
  )
  (error_estimator): Error_Estimator(
    (conv_layer1): Conv_layer(
      (conv): Conv1d(1027, 1027, kernel_size=(1,), stride=(1,))
      (bn): BatchNorm1d(1027, eps=1e-05, momentum=0.1, affine=True, track_running_stats=True)
    )
    (conv_layer2): Conv_layer(
      (conv): Conv1d(1027, 513, kernel_size=(1,), stride=(1,))
      (bn): BatchNorm1d(513, eps=1e-05, momentum=0.1, affine=True, track_running_stats=True)
    )
    (conv_layer3): Conv_layer(
      (conv): Conv1d(513, 256, kernel_size=(1,), stride=(1,))
      (bn): BatchNorm1d(256, eps=1e-05, momentum=0.1, affine=True, track_running_stats=True)
    )
    (conv4): Conv1d(256, 1, kernel_size=(1,), stride=(1,))
    (sig): Sigmoid()
  )
)
Subnet1(
  (deformNet1): DeformNet(
    (conv_layer1): Conv_layer(
      (conv): Conv1d(1027, 1027, kernel_size=(1,), stride=(1,))
      (bn): BatchNorm1d(1027, eps=1e-05, momentum=0.1, affine=True, track_running_stats=True)
    )
    (conv_layer2): Conv_layer(
      (conv): Conv1d(1027, 513, kernel_size=(1,), stride=(1,))
      (bn): BatchNorm1d(513, eps=1e-05, momentum=0.1, affine=True, track_running_stats=True)
    )
    (conv_layer3): Conv_layer(
      (conv): Conv1d(513, 256, kernel_size=(1,), stride=(1,))
      (bn): BatchNorm1d(256, eps=1e-05, momentum=0.1, affine=True, track_running_stats=True)
    )
    (conv4): Conv1d(256, 3, kernel_size=(1,), stride=(1,))
    (th): Tanh()
  )
  (error_estimator): Error_Estimator(
    (conv_layer1): Conv_layer(
      (conv): Conv1d(1027, 1027, kernel_size=(1,), stride=(1,))
      (bn): BatchNorm1d(1027, eps=1e-05, momentum=0.1, affine=True, track_running_stats=True)
    )
    (conv_layer2): Conv_layer(
      (conv): Conv1d(1027, 513, kernel_size=(1,), stride=(1,))
      (bn): BatchNorm1d(513, eps=1e-05, momentum=0.1, affine=True, track_running_stats=True)
    )
    (conv_layer3): Conv_layer(
      (conv): Conv1d(513, 256, kernel_size=(1,), stride=(1,))
      (bn): BatchNorm1d(256, eps=1e-05, momentum=0.1, affine=True, track_running_stats=True)
    )
    (conv4): Conv1d(256, 1, kernel_size=(1,), stride=(1,))
    (sig): Sigmoid()
  )
)
Subnet1(
  (deformNet1): DeformNet(
    (conv_layer1): Conv_layer(
      (conv): Conv1d(1027, 1027, kernel_size=(1,), stride=(1,))
      (bn): BatchNorm1d(1027, eps=1e-05, momentum=0.1, affine=True, track_running_stats=True)
    )
    (conv_layer2): Conv_layer(
      (conv): Conv1d(1027, 513, kernel_size=(1,), stride=(1,))
      (bn): BatchNorm1d(513, eps=1e-05, momentum=0.1, affine=True, track_running_stats=True)
    )
    (conv_layer3): Conv_layer(
      (conv): Conv1d(513, 256, kernel_size=(1,), stride=(1,))
      (bn): BatchNorm1d(256, eps=1e-05, momentum=0.1, affine=True, track_running_stats=True)
    )
    (conv4): Conv1d(256, 3, kernel_size=(1,), stride=(1,))
    (th): Tanh()
  )
  (error_estimator): Error_Estimator(
    (conv_layer1): Conv_layer(
      (conv): Conv1d(1027, 1027, kernel_size=(1,), stride=(1,))
      (bn): BatchNorm1d(1027, eps=1e-05, momentum=0.1, affine=True, track_running_stats=True)
    )
    (conv_layer2): Conv_layer(
      (conv): Conv1d(1027, 513, kernel_size=(1,), stride=(1,))
      (bn): BatchNorm1d(513, eps=1e-05, momentum=0.1, affine=True, track_running_stats=True)
    )
    (conv_layer3): Conv_layer(
      (conv): Conv1d(513, 256, kernel_size=(1,), stride=(1,))
      (bn): BatchNorm1d(256, eps=1e-05, momentum=0.1, affine=True, track_running_stats=True)
    )
    (conv4): Conv1d(256, 1, kernel_size=(1,), stride=(1,))
    (sig): Sigmoid()
  )
)
Subnet1(
  (deformNet1): DeformNet(
    (conv_layer1): Conv_layer(
      (conv): Conv1d(1027, 1027, kernel_size=(1,), stride=(1,))
      (bn): BatchNorm1d(1027, eps=1e-05, momentum=0.1, affine=True, track_running_stats=True)
    )
    (conv_layer2): Conv_layer(
      (conv): Conv1d(1027, 513, kernel_size=(1,), stride=(1,))
      (bn): BatchNorm1d(513, eps=1e-05, momentum=0.1, affine=True, track_running_stats=True)
    )
    (conv_layer3): Conv_layer(
      (conv): Conv1d(513, 256, kernel_size=(1,), stride=(1,))
      (bn): BatchNorm1d(256, eps=1e-05, momentum=0.1, affine=True, track_running_stats=True)
    )
    (conv4): Conv1d(256, 3, kernel_size=(1,), stride=(1,))
    (th): Tanh()
  )
  (error_estimator): Error_Estimator(
    (conv_layer1): Conv_layer(
      (conv): Conv1d(1027, 1027, kernel_size=(1,), stride=(1,))
      (bn): BatchNorm1d(1027, eps=1e-05, momentum=0.1, affine=True, track_running_stats=True)
    )
    (conv_layer2): Conv_layer(
      (conv): Conv1d(1027, 513, kernel_size=(1,), stride=(1,))
      (bn): BatchNorm1d(513, eps=1e-05, momentum=0.1, affine=True, track_running_stats=True)
    )
    (conv_layer3): Conv_layer(
      (conv): Conv1d(513, 256, kernel_size=(1,), stride=(1,))
      (bn): BatchNorm1d(256, eps=1e-05, momentum=0.1, affine=True, track_running_stats=True)
    )
    (conv4): Conv1d(256, 1, kernel_size=(1,), stride=(1,))
    (sig): Sigmoid()
  )
)
Subnet1(
  (deformNet1): DeformNet(
    (conv_layer1): Conv_layer(
      (conv): Conv1d(1027, 1027, kernel_size=(1,), stride=(1,))
      (bn): BatchNorm1d(1027, eps=1e-05, momentum=0.1, affine=True, track_running_stats=True)
    )
    (conv_layer2): Conv_layer(
      (conv): Conv1d(1027, 513, kernel_size=(1,), stride=(1,))
      (bn): BatchNorm1d(513, eps=1e-05, momentum=0.1, affine=True, track_running_stats=True)
    )
    (conv_layer3): Conv_layer(
      (conv): Conv1d(513, 256, kernel_size=(1,), stride=(1,))
      (bn): BatchNorm1d(256, eps=1e-05, momentum=0.1, affine=True, track_running_stats=True)
    )
    (conv4): Conv1d(256, 3, kernel_size=(1,), stride=(1,))
    (th): Tanh()
  )
  (error_estimator): Error_Estimator(
    (conv_layer1): Conv_layer(
      (conv): Conv1d(1027, 1027, kernel_size=(1,), stride=(1,))
      (bn): BatchNorm1d(1027, eps=1e-05, momentum=0.1, affine=True, track_running_stats=True)
    )
    (conv_layer2): Conv_layer(
      (conv): Conv1d(1027, 513, kernel_size=(1,), stride=(1,))
      (bn): BatchNorm1d(513, eps=1e-05, momentum=0.1, affine=True, track_running_stats=True)
    )
    (conv_layer3): Conv_layer(
      (conv): Conv1d(513, 256, kernel_size=(1,), stride=(1,))
      (bn): BatchNorm1d(256, eps=1e-05, momentum=0.1, affine=True, track_running_stats=True)
    )
    (conv4): Conv1d(256, 1, kernel_size=(1,), stride=(1,))
    (sig): Sigmoid()
  )
)
Subnet1(
  (deformNet1): DeformNet(
    (conv_layer1): Conv_layer(
      (conv): Conv1d(1027, 1027, kernel_size=(1,), stride=(1,))
      (bn): BatchNorm1d(1027, eps=1e-05, momentum=0.1, affine=True, track_running_stats=True)
    )
    (conv_layer2): Conv_layer(
      (conv): Conv1d(1027, 513, kernel_size=(1,), stride=(1,))
      (bn): BatchNorm1d(513, eps=1e-05, momentum=0.1, affine=True, track_running_stats=True)
    )
    (conv_layer3): Conv_layer(
      (conv): Conv1d(513, 256, kernel_size=(1,), stride=(1,))
      (bn): BatchNorm1d(256, eps=1e-05, momentum=0.1, affine=True, track_running_stats=True)
    )
    (conv4): Conv1d(256, 3, kernel_size=(1,), stride=(1,))
    (th): Tanh()
  )
  (error_estimator): Error_Estimator(
    (conv_layer1): Conv_layer(
      (conv): Conv1d(1027, 1027, kernel_size=(1,), stride=(1,))
      (bn): BatchNorm1d(1027, eps=1e-05, momentum=0.1, affine=True, track_running_stats=True)
    )
    (conv_layer2): Conv_layer(
      (conv): Conv1d(1027, 513, kernel_size=(1,), stride=(1,))
      (bn): BatchNorm1d(513, eps=1e-05, momentum=0.1, affine=True, track_running_stats=True)
    )
    (conv_layer3): Conv_layer(
      (conv): Conv1d(513, 256, kernel_size=(1,), stride=(1,))
      (bn): BatchNorm1d(256, eps=1e-05, momentum=0.1, affine=True, track_running_stats=True)
    )
    (conv4): Conv1d(256, 1, kernel_size=(1,), stride=(1,))
    (sig): Sigmoid()
  )
)
Subnet1(
  (deformNet1): DeformNet(
    (conv_layer1): Conv_layer(
      (conv): Conv1d(1027, 1027, kernel_size=(1,), stride=(1,))
      (bn): BatchNorm1d(1027, eps=1e-05, momentum=0.1, affine=True, track_running_stats=True)
    )
    (conv_layer2): Conv_layer(
      (conv): Conv1d(1027, 513, kernel_size=(1,), stride=(1,))
      (bn): BatchNorm1d(513, eps=1e-05, momentum=0.1, affine=True, track_running_stats=True)
    )
    (conv_layer3): Conv_layer(
      (conv): Conv1d(513, 256, kernel_size=(1,), stride=(1,))
      (bn): BatchNorm1d(256, eps=1e-05, momentum=0.1, affine=True, track_running_stats=True)
    )
    (conv4): Conv1d(256, 3, kernel_size=(1,), stride=(1,))
    (th): Tanh()
  )
  (error_estimator): Error_Estimator(
    (conv_layer1): Conv_layer(
      (conv): Conv1d(1027, 1027, kernel_size=(1,), stride=(1,))
      (bn): BatchNorm1d(1027, eps=1e-05, momentum=0.1, affine=True, track_running_stats=True)
    )
    (conv_layer2): Conv_layer(
      (conv): Conv1d(1027, 513, kernel_size=(1,), stride=(1,))
      (bn): BatchNorm1d(513, eps=1e-05, momentum=0.1, affine=True, track_running_stats=True)
    )
    (conv_layer3): Conv_layer(
      (conv): Conv1d(513, 256, kernel_size=(1,), stride=(1,))
      (bn): BatchNorm1d(256, eps=1e-05, momentum=0.1, affine=True, track_running_stats=True)
    )
    (conv4): Conv1d(256, 1, kernel_size=(1,), stride=(1,))
    (sig): Sigmoid()
  )
)
Subnet1(
  (deformNet1): DeformNet(
    (conv_layer1): Conv_layer(
      (conv): Conv1d(1027, 1027, kernel_size=(1,), stride=(1,))
      (bn): BatchNorm1d(1027, eps=1e-05, momentum=0.1, affine=True, track_running_stats=True)
    )
    (conv_layer2): Conv_layer(
      (conv): Conv1d(1027, 513, kernel_size=(1,), stride=(1,))
      (bn): BatchNorm1d(513, eps=1e-05, momentum=0.1, affine=True, track_running_stats=True)
    )
    (conv_layer3): Conv_layer(
      (conv): Conv1d(513, 256, kernel_size=(1,), stride=(1,))
      (bn): BatchNorm1d(256, eps=1e-05, momentum=0.1, affine=True, track_running_stats=True)
    )
    (conv4): Conv1d(256, 3, kernel_size=(1,), stride=(1,))
    (th): Tanh()
  )
  (error_estimator): Error_Estimator(
    (conv_layer1): Conv_layer(
      (conv): Conv1d(1027, 1027, kernel_size=(1,), stride=(1,))
      (bn): BatchNorm1d(1027, eps=1e-05, momentum=0.1, affine=True, track_running_stats=True)
    )
    (conv_layer2): Conv_layer(
      (conv): Conv1d(1027, 513, kernel_size=(1,), stride=(1,))
      (bn): BatchNorm1d(513, eps=1e-05, momentum=0.1, affine=True, track_running_stats=True)
    )
    (conv_layer3): Conv_layer(
      (conv): Conv1d(513, 256, kernel_size=(1,), stride=(1,))
      (bn): BatchNorm1d(256, eps=1e-05, momentum=0.1, affine=True, track_running_stats=True)
    )
    (conv4): Conv1d(256, 1, kernel_size=(1,), stride=(1,))
    (sig): Sigmoid()
  )
)
Subnet1(
  (deformNet1): DeformNet(
    (conv_layer1): Conv_layer(
      (conv): Conv1d(1027, 1027, kernel_size=(1,), stride=(1,))
      (bn): BatchNorm1d(1027, eps=1e-05, momentum=0.1, affine=True, track_running_stats=True)
    )
    (conv_layer2): Conv_layer(
      (conv): Conv1d(1027, 513, kernel_size=(1,), stride=(1,))
      (bn): BatchNorm1d(513, eps=1e-05, momentum=0.1, affine=True, track_running_stats=True)
    )
    (conv_layer3): Conv_layer(
      (conv): Conv1d(513, 256, kernel_size=(1,), stride=(1,))
      (bn): BatchNorm1d(256, eps=1e-05, momentum=0.1, affine=True, track_running_stats=True)
    )
    (conv4): Conv1d(256, 3, kernel_size=(1,), stride=(1,))
    (th): Tanh()
  )
  (error_estimator): Error_Estimator(
    (conv_layer1): Conv_layer(
      (conv): Conv1d(1027, 1027, kernel_size=(1,), stride=(1,))
      (bn): BatchNorm1d(1027, eps=1e-05, momentum=0.1, affine=True, track_running_stats=True)
    )
    (conv_layer2): Conv_layer(
      (conv): Conv1d(1027, 513, kernel_size=(1,), stride=(1,))
      (bn): BatchNorm1d(513, eps=1e-05, momentum=0.1, affine=True, track_running_stats=True)
    )
    (conv_layer3): Conv_layer(
      (conv): Conv1d(513, 256, kernel_size=(1,), stride=(1,))
      (bn): BatchNorm1d(256, eps=1e-05, momentum=0.1, affine=True, track_running_stats=True)
    )
    (conv4): Conv1d(256, 1, kernel_size=(1,), stride=(1,))
    (sig): Sigmoid()
  )
)
Subnet1(
  (deformNet1): DeformNet(
    (conv_layer1): Conv_layer(
      (conv): Conv1d(1027, 1027, kernel_size=(1,), stride=(1,))
      (bn): BatchNorm1d(1027, eps=1e-05, momentum=0.1, affine=True, track_running_stats=True)
    )
    (conv_layer2): Conv_layer(
      (conv): Conv1d(1027, 513, kernel_size=(1,), stride=(1,))
      (bn): BatchNorm1d(513, eps=1e-05, momentum=0.1, affine=True, track_running_stats=True)
    )
    (conv_layer3): Conv_layer(
      (conv): Conv1d(513, 256, kernel_size=(1,), stride=(1,))
      (bn): BatchNorm1d(256, eps=1e-05, momentum=0.1, affine=True, track_running_stats=True)
    )
    (conv4): Conv1d(256, 3, kernel_size=(1,), stride=(1,))
    (th): Tanh()
  )
  (error_estimator): Error_Estimator(
    (conv_layer1): Conv_layer(
      (conv): Conv1d(1027, 1027, kernel_size=(1,), stride=(1,))
      (bn): BatchNorm1d(1027, eps=1e-05, momentum=0.1, affine=True, track_running_stats=True)
    )
    (conv_layer2): Conv_layer(
      (conv): Conv1d(1027, 513, kernel_size=(1,), stride=(1,))
      (bn): BatchNorm1d(513, eps=1e-05, momentum=0.1, affine=True, track_running_stats=True)
    )
    (conv_layer3): Conv_layer(
      (conv): Conv1d(513, 256, kernel_size=(1,), stride=(1,))
      (bn): BatchNorm1d(256, eps=1e-05, momentum=0.1, affine=True, track_running_stats=True)
    )
    (conv4): Conv1d(256, 1, kernel_size=(1,), stride=(1,))
    (sig): Sigmoid()
  )
)
Subnet1(
  (deformNet1): DeformNet(
    (conv_layer1): Conv_layer(
      (conv): Conv1d(1027, 1027, kernel_size=(1,), stride=(1,))
      (bn): BatchNorm1d(1027, eps=1e-05, momentum=0.1, affine=True, track_running_stats=True)
    )
    (conv_layer2): Conv_layer(
      (conv): Conv1d(1027, 513, kernel_size=(1,), stride=(1,))
      (bn): BatchNorm1d(513, eps=1e-05, momentum=0.1, affine=True, track_running_stats=True)
    )
    (conv_layer3): Conv_layer(
      (conv): Conv1d(513, 256, kernel_size=(1,), stride=(1,))
      (bn): BatchNorm1d(256, eps=1e-05, momentum=0.1, affine=True, track_running_stats=True)
    )
    (conv4): Conv1d(256, 3, kernel_size=(1,), stride=(1,))
    (th): Tanh()
  )
  (error_estimator): Error_Estimator(
    (conv_layer1): Conv_layer(
      (conv): Conv1d(1027, 1027, kernel_size=(1,), stride=(1,))
      (bn): BatchNorm1d(1027, eps=1e-05, momentum=0.1, affine=True, track_running_stats=True)
    )
    (conv_layer2): Conv_layer(
      (conv): Conv1d(1027, 513, kernel_size=(1,), stride=(1,))
      (bn): BatchNorm1d(513, eps=1e-05, momentum=0.1, affine=True, track_running_stats=True)
    )
    (conv_layer3): Conv_layer(
      (conv): Conv1d(513, 256, kernel_size=(1,), stride=(1,))
      (bn): BatchNorm1d(256, eps=1e-05, momentum=0.1, affine=True, track_running_stats=True)
    )
    (conv4): Conv1d(256, 1, kernel_size=(1,), stride=(1,))
    (sig): Sigmoid()
  )
)
Subnet1(
  (deformNet1): DeformNet(
    (conv_layer1): Conv_layer(
      (conv): Conv1d(1027, 1027, kernel_size=(1,), stride=(1,))
      (bn): BatchNorm1d(1027, eps=1e-05, momentum=0.1, affine=True, track_running_stats=True)
    )
    (conv_layer2): Conv_layer(
      (conv): Conv1d(1027, 513, kernel_size=(1,), stride=(1,))
      (bn): BatchNorm1d(513, eps=1e-05, momentum=0.1, affine=True, track_running_stats=True)
    )
    (conv_layer3): Conv_layer(
      (conv): Conv1d(513, 256, kernel_size=(1,), stride=(1,))
      (bn): BatchNorm1d(256, eps=1e-05, momentum=0.1, affine=True, track_running_stats=True)
    )
    (conv4): Conv1d(256, 3, kernel_size=(1,), stride=(1,))
    (th): Tanh()
  )
  (error_estimator): Error_Estimator(
    (conv_layer1): Conv_layer(
      (conv): Conv1d(1027, 1027, kernel_size=(1,), stride=(1,))
      (bn): BatchNorm1d(1027, eps=1e-05, momentum=0.1, affine=True, track_running_stats=True)
    )
    (conv_layer2): Conv_layer(
      (conv): Conv1d(1027, 513, kernel_size=(1,), stride=(1,))
      (bn): BatchNorm1d(513, eps=1e-05, momentum=0.1, affine=True, track_running_stats=True)
    )
    (conv_layer3): Conv_layer(
      (conv): Conv1d(513, 256, kernel_size=(1,), stride=(1,))
      (bn): BatchNorm1d(256, eps=1e-05, momentum=0.1, affine=True, track_running_stats=True)
    )
    (conv4): Conv1d(256, 1, kernel_size=(1,), stride=(1,))
    (sig): Sigmoid()
  )
)
Subnet1(
  (deformNet1): DeformNet(
    (conv_layer1): Conv_layer(
      (conv): Conv1d(1027, 1027, kernel_size=(1,), stride=(1,))
      (bn): BatchNorm1d(1027, eps=1e-05, momentum=0.1, affine=True, track_running_stats=True)
    )
    (conv_layer2): Conv_layer(
      (conv): Conv1d(1027, 513, kernel_size=(1,), stride=(1,))
      (bn): BatchNorm1d(513, eps=1e-05, momentum=0.1, affine=True, track_running_stats=True)
    )
    (conv_layer3): Conv_layer(
      (conv): Conv1d(513, 256, kernel_size=(1,), stride=(1,))
      (bn): BatchNorm1d(256, eps=1e-05, momentum=0.1, affine=True, track_running_stats=True)
    )
    (conv4): Conv1d(256, 3, kernel_size=(1,), stride=(1,))
    (th): Tanh()
  )
  (error_estimator): Error_Estimator(
    (conv_layer1): Conv_layer(
      (conv): Conv1d(1027, 1027, kernel_size=(1,), stride=(1,))
      (bn): BatchNorm1d(1027, eps=1e-05, momentum=0.1, affine=True, track_running_stats=True)
    )
    (conv_layer2): Conv_layer(
      (conv): Conv1d(1027, 513, kernel_size=(1,), stride=(1,))
      (bn): BatchNorm1d(513, eps=1e-05, momentum=0.1, affine=True, track_running_stats=True)
    )
    (conv_layer3): Conv_layer(
      (conv): Conv1d(513, 256, kernel_size=(1,), stride=(1,))
      (bn): BatchNorm1d(256, eps=1e-05, momentum=0.1, affine=True, track_running_stats=True)
    )
    (conv4): Conv1d(256, 1, kernel_size=(1,), stride=(1,))
    (sig): Sigmoid()
  )
)
Subnet1(
  (deformNet1): DeformNet(
    (conv_layer1): Conv_layer(
      (conv): Conv1d(1027, 1027, kernel_size=(1,), stride=(1,))
      (bn): BatchNorm1d(1027, eps=1e-05, momentum=0.1, affine=True, track_running_stats=True)
    )
    (conv_layer2): Conv_layer(
      (conv): Conv1d(1027, 513, kernel_size=(1,), stride=(1,))
      (bn): BatchNorm1d(513, eps=1e-05, momentum=0.1, affine=True, track_running_stats=True)
    )
    (conv_layer3): Conv_layer(
      (conv): Conv1d(513, 256, kernel_size=(1,), stride=(1,))
      (bn): BatchNorm1d(256, eps=1e-05, momentum=0.1, affine=True, track_running_stats=True)
    )
    (conv4): Conv1d(256, 3, kernel_size=(1,), stride=(1,))
    (th): Tanh()
  )
  (error_estimator): Error_Estimator(
    (conv_layer1): Conv_layer(
      (conv): Conv1d(1027, 1027, kernel_size=(1,), stride=(1,))
      (bn): BatchNorm1d(1027, eps=1e-05, momentum=0.1, affine=True, track_running_stats=True)
    )
    (conv_layer2): Conv_layer(
      (conv): Conv1d(1027, 513, kernel_size=(1,), stride=(1,))
      (bn): BatchNorm1d(513, eps=1e-05, momentum=0.1, affine=True, track_running_stats=True)
    )
    (conv_layer3): Conv_layer(
      (conv): Conv1d(513, 256, kernel_size=(1,), stride=(1,))
      (bn): BatchNorm1d(256, eps=1e-05, momentum=0.1, affine=True, track_running_stats=True)
    )
    (conv4): Conv1d(256, 1, kernel_size=(1,), stride=(1,))
    (sig): Sigmoid()
  )
)
Subnet1(
  (deformNet1): DeformNet(
    (conv_layer1): Conv_layer(
      (conv): Conv1d(1027, 1027, kernel_size=(1,), stride=(1,))
      (bn): BatchNorm1d(1027, eps=1e-05, momentum=0.1, affine=True, track_running_stats=True)
    )
    (conv_layer2): Conv_layer(
      (conv): Conv1d(1027, 513, kernel_size=(1,), stride=(1,))
      (bn): BatchNorm1d(513, eps=1e-05, momentum=0.1, affine=True, track_running_stats=True)
    )
    (conv_layer3): Conv_layer(
      (conv): Conv1d(513, 256, kernel_size=(1,), stride=(1,))
      (bn): BatchNorm1d(256, eps=1e-05, momentum=0.1, affine=True, track_running_stats=True)
    )
    (conv4): Conv1d(256, 3, kernel_size=(1,), stride=(1,))
    (th): Tanh()
  )
  (error_estimator): Error_Estimator(
    (conv_layer1): Conv_layer(
      (conv): Conv1d(1027, 1027, kernel_size=(1,), stride=(1,))
      (bn): BatchNorm1d(1027, eps=1e-05, momentum=0.1, affine=True, track_running_stats=True)
    )
    (conv_layer2): Conv_layer(
      (conv): Conv1d(1027, 513, kernel_size=(1,), stride=(1,))
      (bn): BatchNorm1d(513, eps=1e-05, momentum=0.1, affine=True, track_running_stats=True)
    )
    (conv_layer3): Conv_layer(
      (conv): Conv1d(513, 256, kernel_size=(1,), stride=(1,))
      (bn): BatchNorm1d(256, eps=1e-05, momentum=0.1, affine=True, track_running_stats=True)
    )
    (conv4): Conv1d(256, 1, kernel_size=(1,), stride=(1,))
    (sig): Sigmoid()
  )
)
Subnet1(
  (deformNet1): DeformNet(
    (conv_layer1): Conv_layer(
      (conv): Conv1d(1027, 1027, kernel_size=(1,), stride=(1,))
      (bn): BatchNorm1d(1027, eps=1e-05, momentum=0.1, affine=True, track_running_stats=True)
    )
    (conv_layer2): Conv_layer(
      (conv): Conv1d(1027, 513, kernel_size=(1,), stride=(1,))
      (bn): BatchNorm1d(513, eps=1e-05, momentum=0.1, affine=True, track_running_stats=True)
    )
    (conv_layer3): Conv_layer(
      (conv): Conv1d(513, 256, kernel_size=(1,), stride=(1,))
      (bn): BatchNorm1d(256, eps=1e-05, momentum=0.1, affine=True, track_running_stats=True)
    )
    (conv4): Conv1d(256, 3, kernel_size=(1,), stride=(1,))
    (th): Tanh()
  )
  (error_estimator): Error_Estimator(
    (conv_layer1): Conv_layer(
      (conv): Conv1d(1027, 1027, kernel_size=(1,), stride=(1,))
      (bn): BatchNorm1d(1027, eps=1e-05, momentum=0.1, affine=True, track_running_stats=True)
    )
    (conv_layer2): Conv_layer(
      (conv): Conv1d(1027, 513, kernel_size=(1,), stride=(1,))
      (bn): BatchNorm1d(513, eps=1e-05, momentum=0.1, affine=True, track_running_stats=True)
    )
    (conv_layer3): Conv_layer(
      (conv): Conv1d(513, 256, kernel_size=(1,), stride=(1,))
      (bn): BatchNorm1d(256, eps=1e-05, momentum=0.1, affine=True, track_running_stats=True)
    )
    (conv4): Conv1d(256, 1, kernel_size=(1,), stride=(1,))
    (sig): Sigmoid()
  )
)
Subnet1(
  (deformNet1): DeformNet(
    (conv_layer1): Conv_layer(
      (conv): Conv1d(1027, 1027, kernel_size=(1,), stride=(1,))
      (bn): BatchNorm1d(1027, eps=1e-05, momentum=0.1, affine=True, track_running_stats=True)
    )
    (conv_layer2): Conv_layer(
      (conv): Conv1d(1027, 513, kernel_size=(1,), stride=(1,))
      (bn): BatchNorm1d(513, eps=1e-05, momentum=0.1, affine=True, track_running_stats=True)
    )
    (conv_layer3): Conv_layer(
      (conv): Conv1d(513, 256, kernel_size=(1,), stride=(1,))
      (bn): BatchNorm1d(256, eps=1e-05, momentum=0.1, affine=True, track_running_stats=True)
    )
    (conv4): Conv1d(256, 3, kernel_size=(1,), stride=(1,))
    (th): Tanh()
  )
  (error_estimator): Error_Estimator(
    (conv_layer1): Conv_layer(
      (conv): Conv1d(1027, 1027, kernel_size=(1,), stride=(1,))
      (bn): BatchNorm1d(1027, eps=1e-05, momentum=0.1, affine=True, track_running_stats=True)
    )
    (conv_layer2): Conv_layer(
      (conv): Conv1d(1027, 513, kernel_size=(1,), stride=(1,))
      (bn): BatchNorm1d(513, eps=1e-05, momentum=0.1, affine=True, track_running_stats=True)
    )
    (conv_layer3): Conv_layer(
      (conv): Conv1d(513, 256, kernel_size=(1,), stride=(1,))
      (bn): BatchNorm1d(256, eps=1e-05, momentum=0.1, affine=True, track_running_stats=True)
    )
    (conv4): Conv1d(256, 1, kernel_size=(1,), stride=(1,))
    (sig): Sigmoid()
  )
)
Subnet1(
  (deformNet1): DeformNet(
    (conv_layer1): Conv_layer(
      (conv): Conv1d(1027, 1027, kernel_size=(1,), stride=(1,))
      (bn): BatchNorm1d(1027, eps=1e-05, momentum=0.1, affine=True, track_running_stats=True)
    )
    (conv_layer2): Conv_layer(
      (conv): Conv1d(1027, 513, kernel_size=(1,), stride=(1,))
      (bn): BatchNorm1d(513, eps=1e-05, momentum=0.1, affine=True, track_running_stats=True)
    )
    (conv_layer3): Conv_layer(
      (conv): Conv1d(513, 256, kernel_size=(1,), stride=(1,))
      (bn): BatchNorm1d(256, eps=1e-05, momentum=0.1, affine=True, track_running_stats=True)
    )
    (conv4): Conv1d(256, 3, kernel_size=(1,), stride=(1,))
    (th): Tanh()
  )
  (error_estimator): Error_Estimator(
    (conv_layer1): Conv_layer(
      (conv): Conv1d(1027, 1027, kernel_size=(1,), stride=(1,))
      (bn): BatchNorm1d(1027, eps=1e-05, momentum=0.1, affine=True, track_running_stats=True)
    )
    (conv_layer2): Conv_layer(
      (conv): Conv1d(1027, 513, kernel_size=(1,), stride=(1,))
      (bn): BatchNorm1d(513, eps=1e-05, momentum=0.1, affine=True, track_running_stats=True)
    )
    (conv_layer3): Conv_layer(
      (conv): Conv1d(513, 256, kernel_size=(1,), stride=(1,))
      (bn): BatchNorm1d(256, eps=1e-05, momentum=0.1, affine=True, track_running_stats=True)
    )
    (conv4): Conv1d(256, 1, kernel_size=(1,), stride=(1,))
    (sig): Sigmoid()
  )
)
Subnet1(
  (deformNet1): DeformNet(
    (conv_layer1): Conv_layer(
      (conv): Conv1d(1027, 1027, kernel_size=(1,), stride=(1,))
      (bn): BatchNorm1d(1027, eps=1e-05, momentum=0.1, affine=True, track_running_stats=True)
    )
    (conv_layer2): Conv_layer(
      (conv): Conv1d(1027, 513, kernel_size=(1,), stride=(1,))
      (bn): BatchNorm1d(513, eps=1e-05, momentum=0.1, affine=True, track_running_stats=True)
    )
    (conv_layer3): Conv_layer(
      (conv): Conv1d(513, 256, kernel_size=(1,), stride=(1,))
      (bn): BatchNorm1d(256, eps=1e-05, momentum=0.1, affine=True, track_running_stats=True)
    )
    (conv4): Conv1d(256, 3, kernel_size=(1,), stride=(1,))
    (th): Tanh()
  )
  (error_estimator): Error_Estimator(
    (conv_layer1): Conv_layer(
      (conv): Conv1d(1027, 1027, kernel_size=(1,), stride=(1,))
      (bn): BatchNorm1d(1027, eps=1e-05, momentum=0.1, affine=True, track_running_stats=True)
    )
    (conv_layer2): Conv_layer(
      (conv): Conv1d(1027, 513, kernel_size=(1,), stride=(1,))
      (bn): BatchNorm1d(513, eps=1e-05, momentum=0.1, affine=True, track_running_stats=True)
    )
    (conv_layer3): Conv_layer(
      (conv): Conv1d(513, 256, kernel_size=(1,), stride=(1,))
      (bn): BatchNorm1d(256, eps=1e-05, momentum=0.1, affine=True, track_running_stats=True)
    )
    (conv4): Conv1d(256, 1, kernel_size=(1,), stride=(1,))
    (sig): Sigmoid()
  )
)
Subnet1(
  (deformNet1): DeformNet(
    (conv_layer1): Conv_layer(
      (conv): Conv1d(1027, 1027, kernel_size=(1,), stride=(1,))
      (bn): BatchNorm1d(1027, eps=1e-05, momentum=0.1, affine=True, track_running_stats=True)
    )
    (conv_layer2): Conv_layer(
      (conv): Conv1d(1027, 513, kernel_size=(1,), stride=(1,))
      (bn): BatchNorm1d(513, eps=1e-05, momentum=0.1, affine=True, track_running_stats=True)
    )
    (conv_layer3): Conv_layer(
      (conv): Conv1d(513, 256, kernel_size=(1,), stride=(1,))
      (bn): BatchNorm1d(256, eps=1e-05, momentum=0.1, affine=True, track_running_stats=True)
    )
    (conv4): Conv1d(256, 3, kernel_size=(1,), stride=(1,))
    (th): Tanh()
  )
  (error_estimator): Error_Estimator(
    (conv_layer1): Conv_layer(
      (conv): Conv1d(1027, 1027, kernel_size=(1,), stride=(1,))
      (bn): BatchNorm1d(1027, eps=1e-05, momentum=0.1, affine=True, track_running_stats=True)
    )
    (conv_layer2): Conv_layer(
      (conv): Conv1d(1027, 513, kernel_size=(1,), stride=(1,))
      (bn): BatchNorm1d(513, eps=1e-05, momentum=0.1, affine=True, track_running_stats=True)
    )
    (conv_layer3): Conv_layer(
      (conv): Conv1d(513, 256, kernel_size=(1,), stride=(1,))
      (bn): BatchNorm1d(256, eps=1e-05, momentum=0.1, affine=True, track_running_stats=True)
    )
    (conv4): Conv1d(256, 1, kernel_size=(1,), stride=(1,))
    (sig): Sigmoid()
  )
)
Subnet1(
  (deformNet1): DeformNet(
    (conv_layer1): Conv_layer(
      (conv): Conv1d(1027, 1027, kernel_size=(1,), stride=(1,))
      (bn): BatchNorm1d(1027, eps=1e-05, momentum=0.1, affine=True, track_running_stats=True)
    )
    (conv_layer2): Conv_layer(
      (conv): Conv1d(1027, 513, kernel_size=(1,), stride=(1,))
      (bn): BatchNorm1d(513, eps=1e-05, momentum=0.1, affine=True, track_running_stats=True)
    )
    (conv_layer3): Conv_layer(
      (conv): Conv1d(513, 256, kernel_size=(1,), stride=(1,))
      (bn): BatchNorm1d(256, eps=1e-05, momentum=0.1, affine=True, track_running_stats=True)
    )
    (conv4): Conv1d(256, 3, kernel_size=(1,), stride=(1,))
    (th): Tanh()
  )
  (error_estimator): Error_Estimator(
    (conv_layer1): Conv_layer(
      (conv): Conv1d(1027, 1027, kernel_size=(1,), stride=(1,))
      (bn): BatchNorm1d(1027, eps=1e-05, momentum=0.1, affine=True, track_running_stats=True)
    )
    (conv_layer2): Conv_layer(
      (conv): Conv1d(1027, 513, kernel_size=(1,), stride=(1,))
      (bn): BatchNorm1d(513, eps=1e-05, momentum=0.1, affine=True, track_running_stats=True)
    )
    (conv_layer3): Conv_layer(
      (conv): Conv1d(513, 256, kernel_size=(1,), stride=(1,))
      (bn): BatchNorm1d(256, eps=1e-05, momentum=0.1, affine=True, track_running_stats=True)
    )
    (conv4): Conv1d(256, 1, kernel_size=(1,), stride=(1,))
    (sig): Sigmoid()
  )
)
Subnet1(
  (deformNet1): DeformNet(
    (conv_layer1): Conv_layer(
      (conv): Conv1d(1027, 1027, kernel_size=(1,), stride=(1,))
      (bn): BatchNorm1d(1027, eps=1e-05, momentum=0.1, affine=True, track_running_stats=True)
    )
    (conv_layer2): Conv_layer(
      (conv): Conv1d(1027, 513, kernel_size=(1,), stride=(1,))
      (bn): BatchNorm1d(513, eps=1e-05, momentum=0.1, affine=True, track_running_stats=True)
    )
    (conv_layer3): Conv_layer(
      (conv): Conv1d(513, 256, kernel_size=(1,), stride=(1,))
      (bn): BatchNorm1d(256, eps=1e-05, momentum=0.1, affine=True, track_running_stats=True)
    )
    (conv4): Conv1d(256, 3, kernel_size=(1,), stride=(1,))
    (th): Tanh()
  )
  (error_estimator): Error_Estimator(
    (conv_layer1): Conv_layer(
      (conv): Conv1d(1027, 1027, kernel_size=(1,), stride=(1,))
      (bn): BatchNorm1d(1027, eps=1e-05, momentum=0.1, affine=True, track_running_stats=True)
    )
    (conv_layer2): Conv_layer(
      (conv): Conv1d(1027, 513, kernel_size=(1,), stride=(1,))
      (bn): BatchNorm1d(513, eps=1e-05, momentum=0.1, affine=True, track_running_stats=True)
    )
    (conv_layer3): Conv_layer(
      (conv): Conv1d(513, 256, kernel_size=(1,), stride=(1,))
      (bn): BatchNorm1d(256, eps=1e-05, momentum=0.1, affine=True, track_running_stats=True)
    )
    (conv4): Conv1d(256, 1, kernel_size=(1,), stride=(1,))
    (sig): Sigmoid()
  )
)
Subnet1(
  (deformNet1): DeformNet(
    (conv_layer1): Conv_layer(
      (conv): Conv1d(1027, 1027, kernel_size=(1,), stride=(1,))
      (bn): BatchNorm1d(1027, eps=1e-05, momentum=0.1, affine=True, track_running_stats=True)
    )
    (conv_layer2): Conv_layer(
      (conv): Conv1d(1027, 513, kernel_size=(1,), stride=(1,))
      (bn): BatchNorm1d(513, eps=1e-05, momentum=0.1, affine=True, track_running_stats=True)
    )
    (conv_layer3): Conv_layer(
      (conv): Conv1d(513, 256, kernel_size=(1,), stride=(1,))
      (bn): BatchNorm1d(256, eps=1e-05, momentum=0.1, affine=True, track_running_stats=True)
    )
    (conv4): Conv1d(256, 3, kernel_size=(1,), stride=(1,))
    (th): Tanh()
  )
  (error_estimator): Error_Estimator(
    (conv_layer1): Conv_layer(
      (conv): Conv1d(1027, 1027, kernel_size=(1,), stride=(1,))
      (bn): BatchNorm1d(1027, eps=1e-05, momentum=0.1, affine=True, track_running_stats=True)
    )
    (conv_layer2): Conv_layer(
      (conv): Conv1d(1027, 513, kernel_size=(1,), stride=(1,))
      (bn): BatchNorm1d(513, eps=1e-05, momentum=0.1, affine=True, track_running_stats=True)
    )
    (conv_layer3): Conv_layer(
      (conv): Conv1d(513, 256, kernel_size=(1,), stride=(1,))
      (bn): BatchNorm1d(256, eps=1e-05, momentum=0.1, affine=True, track_running_stats=True)
    )
    (conv4): Conv1d(256, 1, kernel_size=(1,), stride=(1,))
    (sig): Sigmoid()
  )
)
Subnet1(
  (deformNet1): DeformNet(
    (conv_layer1): Conv_layer(
      (conv): Conv1d(1027, 1027, kernel_size=(1,), stride=(1,))
      (bn): BatchNorm1d(1027, eps=1e-05, momentum=0.1, affine=True, track_running_stats=True)
    )
    (conv_layer2): Conv_layer(
      (conv): Conv1d(1027, 513, kernel_size=(1,), stride=(1,))
      (bn): BatchNorm1d(513, eps=1e-05, momentum=0.1, affine=True, track_running_stats=True)
    )
    (conv_layer3): Conv_layer(
      (conv): Conv1d(513, 256, kernel_size=(1,), stride=(1,))
      (bn): BatchNorm1d(256, eps=1e-05, momentum=0.1, affine=True, track_running_stats=True)
    )
    (conv4): Conv1d(256, 3, kernel_size=(1,), stride=(1,))
    (th): Tanh()
  )
  (error_estimator): Error_Estimator(
    (conv_layer1): Conv_layer(
      (conv): Conv1d(1027, 1027, kernel_size=(1,), stride=(1,))
      (bn): BatchNorm1d(1027, eps=1e-05, momentum=0.1, affine=True, track_running_stats=True)
    )
    (conv_layer2): Conv_layer(
      (conv): Conv1d(1027, 513, kernel_size=(1,), stride=(1,))
      (bn): BatchNorm1d(513, eps=1e-05, momentum=0.1, affine=True, track_running_stats=True)
    )
    (conv_layer3): Conv_layer(
      (conv): Conv1d(513, 256, kernel_size=(1,), stride=(1,))
      (bn): BatchNorm1d(256, eps=1e-05, momentum=0.1, affine=True, track_running_stats=True)
    )
    (conv4): Conv1d(256, 1, kernel_size=(1,), stride=(1,))
    (sig): Sigmoid()
  )
)
Subnet1(
  (deformNet1): DeformNet(
    (conv_layer1): Conv_layer(
      (conv): Conv1d(1027, 1027, kernel_size=(1,), stride=(1,))
      (bn): BatchNorm1d(1027, eps=1e-05, momentum=0.1, affine=True, track_running_stats=True)
    )
    (conv_layer2): Conv_layer(
      (conv): Conv1d(1027, 513, kernel_size=(1,), stride=(1,))
      (bn): BatchNorm1d(513, eps=1e-05, momentum=0.1, affine=True, track_running_stats=True)
    )
    (conv_layer3): Conv_layer(
      (conv): Conv1d(513, 256, kernel_size=(1,), stride=(1,))
      (bn): BatchNorm1d(256, eps=1e-05, momentum=0.1, affine=True, track_running_stats=True)
    )
    (conv4): Conv1d(256, 3, kernel_size=(1,), stride=(1,))
    (th): Tanh()
  )
  (error_estimator): Error_Estimator(
    (conv_layer1): Conv_layer(
      (conv): Conv1d(1027, 1027, kernel_size=(1,), stride=(1,))
      (bn): BatchNorm1d(1027, eps=1e-05, momentum=0.1, affine=True, track_running_stats=True)
    )
    (conv_layer2): Conv_layer(
      (conv): Conv1d(1027, 513, kernel_size=(1,), stride=(1,))
      (bn): BatchNorm1d(513, eps=1e-05, momentum=0.1, affine=True, track_running_stats=True)
    )
    (conv_layer3): Conv_layer(
      (conv): Conv1d(513, 256, kernel_size=(1,), stride=(1,))
      (bn): BatchNorm1d(256, eps=1e-05, momentum=0.1, affine=True, track_running_stats=True)
    )
    (conv4): Conv1d(256, 1, kernel_size=(1,), stride=(1,))
    (sig): Sigmoid()
  )
)
Subnet1(
  (deformNet1): DeformNet(
    (conv_layer1): Conv_layer(
      (conv): Conv1d(1027, 1027, kernel_size=(1,), stride=(1,))
      (bn): BatchNorm1d(1027, eps=1e-05, momentum=0.1, affine=True, track_running_stats=True)
    )
    (conv_layer2): Conv_layer(
      (conv): Conv1d(1027, 513, kernel_size=(1,), stride=(1,))
      (bn): BatchNorm1d(513, eps=1e-05, momentum=0.1, affine=True, track_running_stats=True)
    )
    (conv_layer3): Conv_layer(
      (conv): Conv1d(513, 256, kernel_size=(1,), stride=(1,))
      (bn): BatchNorm1d(256, eps=1e-05, momentum=0.1, affine=True, track_running_stats=True)
    )
    (conv4): Conv1d(256, 3, kernel_size=(1,), stride=(1,))
    (th): Tanh()
  )
  (error_estimator): Error_Estimator(
    (conv_layer1): Conv_layer(
      (conv): Conv1d(1027, 1027, kernel_size=(1,), stride=(1,))
      (bn): BatchNorm1d(1027, eps=1e-05, momentum=0.1, affine=True, track_running_stats=True)
    )
    (conv_layer2): Conv_layer(
      (conv): Conv1d(1027, 513, kernel_size=(1,), stride=(1,))
      (bn): BatchNorm1d(513, eps=1e-05, momentum=0.1, affine=True, track_running_stats=True)
    )
    (conv_layer3): Conv_layer(
      (conv): Conv1d(513, 256, kernel_size=(1,), stride=(1,))
      (bn): BatchNorm1d(256, eps=1e-05, momentum=0.1, affine=True, track_running_stats=True)
    )
    (conv4): Conv1d(256, 1, kernel_size=(1,), stride=(1,))
    (sig): Sigmoid()
  )
)
Subnet1(
  (deformNet1): DeformNet(
    (conv_layer1): Conv_layer(
      (conv): Conv1d(1027, 1027, kernel_size=(1,), stride=(1,))
      (bn): BatchNorm1d(1027, eps=1e-05, momentum=0.1, affine=True, track_running_stats=True)
    )
    (conv_layer2): Conv_layer(
      (conv): Conv1d(1027, 513, kernel_size=(1,), stride=(1,))
      (bn): BatchNorm1d(513, eps=1e-05, momentum=0.1, affine=True, track_running_stats=True)
    )
    (conv_layer3): Conv_layer(
      (conv): Conv1d(513, 256, kernel_size=(1,), stride=(1,))
      (bn): BatchNorm1d(256, eps=1e-05, momentum=0.1, affine=True, track_running_stats=True)
    )
    (conv4): Conv1d(256, 3, kernel_size=(1,), stride=(1,))
    (th): Tanh()
  )
  (error_estimator): Error_Estimator(
    (conv_layer1): Conv_layer(
      (conv): Conv1d(1027, 1027, kernel_size=(1,), stride=(1,))
      (bn): BatchNorm1d(1027, eps=1e-05, momentum=0.1, affine=True, track_running_stats=True)
    )
    (conv_layer2): Conv_layer(
      (conv): Conv1d(1027, 513, kernel_size=(1,), stride=(1,))
      (bn): BatchNorm1d(513, eps=1e-05, momentum=0.1, affine=True, track_running_stats=True)
    )
    (conv_layer3): Conv_layer(
      (conv): Conv1d(513, 256, kernel_size=(1,), stride=(1,))
      (bn): BatchNorm1d(256, eps=1e-05, momentum=0.1, affine=True, track_running_stats=True)
    )
    (conv4): Conv1d(256, 1, kernel_size=(1,), stride=(1,))
    (sig): Sigmoid()
  )
)
Subnet1(
  (deformNet1): DeformNet(
    (conv_layer1): Conv_layer(
      (conv): Conv1d(1027, 1027, kernel_size=(1,), stride=(1,))
      (bn): BatchNorm1d(1027, eps=1e-05, momentum=0.1, affine=True, track_running_stats=True)
    )
    (conv_layer2): Conv_layer(
      (conv): Conv1d(1027, 513, kernel_size=(1,), stride=(1,))
      (bn): BatchNorm1d(513, eps=1e-05, momentum=0.1, affine=True, track_running_stats=True)
    )
    (conv_layer3): Conv_layer(
      (conv): Conv1d(513, 256, kernel_size=(1,), stride=(1,))
      (bn): BatchNorm1d(256, eps=1e-05, momentum=0.1, affine=True, track_running_stats=True)
    )
    (conv4): Conv1d(256, 3, kernel_size=(1,), stride=(1,))
    (th): Tanh()
  )
  (error_estimator): Error_Estimator(
    (conv_layer1): Conv_layer(
      (conv): Conv1d(1027, 1027, kernel_size=(1,), stride=(1,))
      (bn): BatchNorm1d(1027, eps=1e-05, momentum=0.1, affine=True, track_running_stats=True)
    )
    (conv_layer2): Conv_layer(
      (conv): Conv1d(1027, 513, kernel_size=(1,), stride=(1,))
      (bn): BatchNorm1d(513, eps=1e-05, momentum=0.1, affine=True, track_running_stats=True)
    )
    (conv_layer3): Conv_layer(
      (conv): Conv1d(513, 256, kernel_size=(1,), stride=(1,))
      (bn): BatchNorm1d(256, eps=1e-05, momentum=0.1, affine=True, track_running_stats=True)
    )
    (conv4): Conv1d(256, 1, kernel_size=(1,), stride=(1,))
    (sig): Sigmoid()
  )
)
Subnet1(
  (deformNet1): DeformNet(
    (conv_layer1): Conv_layer(
      (conv): Conv1d(1027, 1027, kernel_size=(1,), stride=(1,))
      (bn): BatchNorm1d(1027, eps=1e-05, momentum=0.1, affine=True, track_running_stats=True)
    )
    (conv_layer2): Conv_layer(
      (conv): Conv1d(1027, 513, kernel_size=(1,), stride=(1,))
      (bn): BatchNorm1d(513, eps=1e-05, momentum=0.1, affine=True, track_running_stats=True)
    )
    (conv_layer3): Conv_layer(
      (conv): Conv1d(513, 256, kernel_size=(1,), stride=(1,))
      (bn): BatchNorm1d(256, eps=1e-05, momentum=0.1, affine=True, track_running_stats=True)
    )
    (conv4): Conv1d(256, 3, kernel_size=(1,), stride=(1,))
    (th): Tanh()
  )
  (error_estimator): Error_Estimator(
    (conv_layer1): Conv_layer(
      (conv): Conv1d(1027, 1027, kernel_size=(1,), stride=(1,))
      (bn): BatchNorm1d(1027, eps=1e-05, momentum=0.1, affine=True, track_running_stats=True)
    )
    (conv_layer2): Conv_layer(
      (conv): Conv1d(1027, 513, kernel_size=(1,), stride=(1,))
      (bn): BatchNorm1d(513, eps=1e-05, momentum=0.1, affine=True, track_running_stats=True)
    )
    (conv_layer3): Conv_layer(
      (conv): Conv1d(513, 256, kernel_size=(1,), stride=(1,))
      (bn): BatchNorm1d(256, eps=1e-05, momentum=0.1, affine=True, track_running_stats=True)
    )
    (conv4): Conv1d(256, 1, kernel_size=(1,), stride=(1,))
    (sig): Sigmoid()
  )
)
Subnet1(
  (deformNet1): DeformNet(
    (conv_layer1): Conv_layer(
      (conv): Conv1d(1027, 1027, kernel_size=(1,), stride=(1,))
      (bn): BatchNorm1d(1027, eps=1e-05, momentum=0.1, affine=True, track_running_stats=True)
    )
    (conv_layer2): Conv_layer(
      (conv): Conv1d(1027, 513, kernel_size=(1,), stride=(1,))
      (bn): BatchNorm1d(513, eps=1e-05, momentum=0.1, affine=True, track_running_stats=True)
    )
    (conv_layer3): Conv_layer(
      (conv): Conv1d(513, 256, kernel_size=(1,), stride=(1,))
      (bn): BatchNorm1d(256, eps=1e-05, momentum=0.1, affine=True, track_running_stats=True)
    )
    (conv4): Conv1d(256, 3, kernel_size=(1,), stride=(1,))
    (th): Tanh()
  )
  (error_estimator): Error_Estimator(
    (conv_layer1): Conv_layer(
      (conv): Conv1d(1027, 1027, kernel_size=(1,), stride=(1,))
      (bn): BatchNorm1d(1027, eps=1e-05, momentum=0.1, affine=True, track_running_stats=True)
    )
    (conv_layer2): Conv_layer(
      (conv): Conv1d(1027, 513, kernel_size=(1,), stride=(1,))
      (bn): BatchNorm1d(513, eps=1e-05, momentum=0.1, affine=True, track_running_stats=True)
    )
    (conv_layer3): Conv_layer(
      (conv): Conv1d(513, 256, kernel_size=(1,), stride=(1,))
      (bn): BatchNorm1d(256, eps=1e-05, momentum=0.1, affine=True, track_running_stats=True)
    )
    (conv4): Conv1d(256, 1, kernel_size=(1,), stride=(1,))
    (sig): Sigmoid()
  )
)
